NDX/result/garch_lstm_qlike_model.pth (torch, 220298 bytes, 9 tensors)

lstm.weight_ih_l0 f4 [256, 15]
0	0xbdd92872	-0.106034175
1	0xbd95af53	-0.07308831
2	0x3d517e4c	0.051145837
3	0x3d77969c	0.060446367
4	0xbd9d887b	-0.07692047
5	0xbd5c1bea	-0.05373756
6	0xbcbf0738	-0.023318872
7	0x3e04a434	0.12953264
8	0xbdaea640	-0.085278034
9	0x3da0110e	0.07815753
10	0x3cfc35b8	0.030787334
11	0x3e0e2096	0.13879618
12	0x3c059870	0.00815402
13	0xbceff168	-0.029289916
14	0x3d6e30ec	0.058152124
15	0x3bae3f40	0.0053175986
16	0x3cdfe8e8	0.027332738
17	0xbd3a67aa	-0.045509018
18	0x3da982ac	0.08276877
19	0x3e14c594	0.14528495
20	0xbd7dc9ee	-0.061960153
21	0xbe0f4db6	-0.13994488
22	0xbe088f1b	-0.1333584
23	0xbd781b3e	-0.060572855
24	0xbb8e1540	-0.0043360293
25	0x3d12d138	0.035844058
26	0xbdd8d7f2	-0.10588063
27	0x3db72dd6	0.089442894
28	0x3d0ebc70	0.034847677
29	0x3d34f5e8	0.044179827
30	0x3c1203b0	0.008912012
31	0xbdd92c58	-0.10604161
32	0xbce64a94	-0.028111733
33	0x3d27e728	0.040991932
34	0xbd345bb8	-0.044032782
35	0x3dfc2864	0.123123914
36	0xbcc5c148	-0.024140015
37	0x3d25fa24	0.040521756
38	0x3d94f58e	0.07273398
39	0xbc56fb10	-0.013121381
40	0x3d761720	0.060080647
41	0x3d47a92c	0.04874532
42	0x3c29bb80	0.010359645
43	0x3ddcc658	0.107800186
44	0x3c2ef2d0	0.010678008
45	0x3cf3d6c0	0.029765487
46	0x3c07dd20	0.008292466
47	0xbe069e3e	-0.13146302
48	0xbe048b86	-0.12943849
49	0xbdfac6e0	-0.12244964
50	0x3bb3d260	0.005487725
51	0x3dc064d0	0.093942285
52	0x3cc97608	0.024592414
53	0x3d473e54	0.048643425
54	0xbd3a263c	-0.04544662
55	0xbe011f74	-0.12609655
56	0x3e014c14	0.12626678
57	0x3e0a2a46	0.13492689
58	0xbd36d058	-0.044632286
59	0xbdb2d718	-0.08732432
60	0xbc0ec890	-0.00871481
61	0xbdf15f0d	-0.117857076
62	0x3de1b648	0.110210955
63	0x3ddf0278	0.10889143
64	0xba892c80	-0.0010465533
65	0x3d5e4a28	0.05426994
66	0xbd88b07b	-0.06674286
67	0x3e14d9f8	0.14536273
68	0xbd58cbb8	-0.052928656
69	0xbd3a633c	-0.045504794
70	0xbe043b1c	-0.12913173
71	0x3dcbd9aa	0.099536255
72	0xbde766fd	-0.1129894
73	0xbd68adf0	-0.056806505
74	0xbd9ad84c	-0.075607866
75	0x3c780c70	0.015139684
76	0xbdafdb1a	-0.08586712
77	0xbd9b55b7	-0.07584708
78	0xbdaf9b00	-0.08574486
79	0xbd9999b3	-0.07500019
80	0xbd7b45d4	-0.06134589
81	0x3d817e4c	0.06322917
82	0x3d4ce840	0.05002618
83	0xbda74512	-0.08167471
84	0x3cc53c70	0.02407667
85	0xbd9d8169	-0.07690699
86	0x3e0828ca	0.1329681
87	0xbc95bcb8	-0.018278465
88	0xbdeff642	-0.11716892
89	0xbd609c5a	-0.05483661
90	0xbdd066f2	-0.10175885
91	0x3e05e140	0.13074207
92	0x3da5be46	0.080929324
93	0xbd9e9f61	-0.07745243
94	0x3dfd22dc	0.123601645
95	0xbdc806ca	-0.0976692
96	0x3cf593c0	0.02997768
97	0x3dc54e46	0.0963407
98	0x3e1197d6	0.14218077
99	0x3c97bbe8	0.018522218
100	0xbccc47bc	-0.02493655
101	0xbcba1f00	-0.02271986
102	0x3e1550c6	0.14581594
103	0xbd04c8c2	-0.03241802
104	0x3cb7bd40	0.022429109
105	0xbc2101d0	-0.009827092
106	0x3e035972	0.1282709
107	0x3d82e09c	0.06390497
108	0xbd6cb5ea	-0.057790674
109	0xbda2337a	-0.079199746
110	0xbde97f8c	-0.11401281
111	0x3d2672a4	0.040636674
112	0xbbab6720	-0.0052307993
113	0xbdefb5a5	-0.11704568
114	0x3e09bdc4	0.13451296
115	0xbdca939a	-0.09891434
116	0x3da69422	0.08133723
117	0xbc907d50	-0.017637879
118	0xbc8d96a8	-0.017283753
119	0x3dd27498	0.10276145
120	0xbd6dfc6e	-0.058102064
121	0xbdcf4900	-0.101213455
122	0xbdf62ee0	-0.120206594
123	0xbdd7663c	-0.105175465
124	0x3cb0adf0	0.021567315
125	0x3e07d0e6	0.13263282
126	0x3d873c32	0.06603278
127	0x3cb2a1d0	0.021805674
128	0xbdf23cf2	-0.11828031
129	0x3de56b84	0.112021476
130	0x3dd829e8	0.10554868
131	0x3dd460b0	0.10370004
132	0x3d7c8598	0.061650842
133	0x3d23fd60	0.04003656
134	0x3dfe5000	0.124176025
135	0xbd20a12e	-0.039216213
136	0x3dc62110	0.09674275
137	0x3da3cd16	0.079981014
138	0x3d161ac8	0.036646634
139	0xbc6e9510	-0.014561906
140	0x3a4c5900	0.00077952445
141	0xbd520854	-0.051277474
142	0xbc7676f0	-0.015043005
143	0x3ca86bf8	0.020559296
144	0x3d20c4d0	0.039250195
145	0xbd9cf3bb	-0.076636754
146	0xbdfd8c58	-0.12380284
147	0x3dbd7428	0.09250671
148	0x3dde5250	0.108555436
149	0x3e0b69e6	0.13614616
150	0x3db69380	0.08914852
151	0xbcabd230	-0.020974249
152	0x3dc6a868	0.0970009
153	0x3daa18ea	0.08305533
154	0xbde6118a	-0.11233814
155	0xbd2babfc	-0.041912064
156	0xbdc83f12	-0.09777655
157	0xbc925eb0	-0.017867416
158	0x3d94e36e	0.07269941
159	0x3d822388	0.06354433
160	0xbcdf7128	-0.027275637
161	0xbe137c82	-0.14402965
162	0x3c6df9d0	0.014524892
163	0x3cc4b608	0.02401258
164	0x3cd26328	0.025682047
165	0xbc9ab9a8	-0.018887356
166	0x3d72c8fc	0.059273705
167	0x3e09d3b6	0.13459668
168	0xbe061192	-0.1309264
169	0xbdfd9f1f	-0.123838656
170	0x3d5686f0	0.05237478
171	0x3db2fdea	0.087398365
172	0xbd2d2854	-0.042274788
173	0x3d769f34	0.06021042
174	0x3d15a730	0.036536396
175	0xbe141bef	-0.14463781
176	0xbd947937	-0.072496824
177	0x3c991b30	0.018689722
178	0xbde7d41e	-0.11319755
179	0x3c95fee8	0.018310025
180	0x3e1271dc	0.14301246
181	0x3e131cd8	0.14366472
182	0xbd228e28	-0.039686352
183	0x3da623e8	0.08112317
184	0x3d7c17b0	0.061546028
185	0x3dea6edc	0.11446926
186	0xbc470f20	-0.012149602
187	0xbd148a8a	-0.036264934
188	0x3d8e7d18	0.069574535
189	0x3d5adf74	0.053435758
190	0xbcbdbb58	-0.023160622
191	0xbdf8f314	-0.121557385
192	0xbcc56204	-0.024094589
193	0xbddddbb6	-0.10832922
194	0xbc7d5f90	-0.015464678
195	0x3e03747c	0.12837404
196	0x3d3f88a0	0.046761155
197	0x3dff1d54	0.12456766
198	0x3cd0d310	0.025491267
199	0xbdc949da	-0.09828539
200	0x3d7bb050	0.06144744
201	0xbd97b3f9	-0.07407374
202	0x3df6831c	0.12036726
203	0x3d91dd70	0.07122314
204	0x3e031992	0.12802723
205	0xbdb5a37e	-0.08869074
206	0x3e13295e	0.14371249
207	0x3d8d7008	0.06906134
208	0x3ab26800	0.0013611317
209	0x3b354500	0.0027659535
210	0xbd849e2d	-0.06475482
211	0x3dee8c48	0.1164785
212	0x3db6c09a	0.089234546
213	0xbd20b8d2	-0.03923876
214	0xbbf87a20	-0.007582918
215	0x3bbd0040	0.005767852
216	0xbc1a29d0	-0.009409383
217	0x3da2283a	0.07917829
218	0xbe113cc2	-0.14183334
219	0x3d9a64f8	0.075387895
220	0xbddea424	-0.10871151
221	0xbda09626	-0.078411385
222	0xbd149dc2	-0.036283262
223	0xbd910355	-0.07080714
224	0x3dc08c58	0.094017684
225	0xbd1a5e3e	-0.037687533
226	0x3d6fa298	0.05850467
227	0xbd6f54b8	-0.058430403
228	0x3dcbf698	0.099591434
229	0xbdfd0296	-0.12354009
230	0x3cb296b0	0.021800369
231	0x3d3781c4	0.04480149
232	0x3d1591c8	0.03651598
233	0x3e161c46	0.14659223
234	0x3dfa8ea8	0.12234241
235	0x3bab7540	0.005232483
236	0xbdb1d370	-0.08682907
237	0xbe011892	-0.12607029
238	0x3dd086e8	0.10181981
239	0xbdc98c7a	-0.09841247
240	0x3e04edcc	0.12981337
241	0xbdcb1038	-0.09915203
242	0xbe05ad53	-0.13054399
243	0x3e1298b4	0.14316064
244	0xbe0f5904	-0.139988
245	0xbdb4d5ba	-0.088298276
246	0x3e171cd0	0.14757085
247	0x3e0c9f54	0.13732654
248	0x3e13c200	0.14429474
249	0x3dcb6b52	0.09932579
250	0x3e16a064	0.14709622
251	0xbd28f5be	-0.041249983
252	0xbcf3b6d4	-0.029750265
253	0x3d837df2	0.064205065
254	0x3da35832	0.07975806
255	0x3c371480	0.011174321

lstm.weight_hh_l0 f4 [256, 64]
0	0xbd4f6460	-0.050632834
1	0x3d11e441	0.03561807
2	0xbd5cad81	-0.053876404
3	0xbd6f6e4a	-0.05845479
4	0xbcfb35b7	-0.030665262
5	0xbd159e03	-0.036527645
6	0xbca46bb4	-0.020070888
7	0x3d010880	0.031502247
8	0x3d2c8226	0.042116307
9	0xbcfff6fd	-0.031245703
10	0x3da39be0	0.07988715
11	0x3d3222f9	0.043490384
12	0x3d74aa72	0.05973286
13	0xbd337684	-0.043814197
14	0x3d6b1e00	0.057401657
15	0x3ddd0fd1	0.10794032
16	0x3e3b0241	0.18262579
17	0xbdaf0565	-0.08545951
18	0x3d2bae1f	0.0419141
19	0xbd2de05f	-0.042450305
20	0xbccc803b	-0.024963489
21	0x3df2073c	0.11817786
22	0x3c1c3fc4	0.009536687
23	0xbd93db80	-0.07219601
24	0xbb8ca18d	-0.0042917193
25	0xba92655c	-0.0011169123
26	0x3cc506ee	0.024051156
27	0xbdb6fddb	-0.08935138
28	0xbdeae08a	-0.11468609
29	0xbc6a1637	-0.014287523
30	0xbd8405fc	-0.06446454
31	0x3c850ed1	0.016242417
32	0x3c67e4cb	0.01415367
33	0xbcb76d64	-0.022391029
34	0x3cc247fa	0.023715962
35	0xbc82e5f4	-0.01597879
36	0x3de07fa5	0.10961846
37	0x3dfeec48	0.12447411
38	0x3bb5d83b	0.0055494583
39	0x3d97ddad	0.07415328
40	0xbdbc2221	-0.09186197
41	0x3ab170ab	0.0013537606
42	0x3cb96e20	0.02263552
43	0xbceeafe4	-0.029136606
44	0xbd2db4ea	-0.04240886
45	0x3d7ea340	0.062167406
46	0xbd381dec	-0.04495041
47	0xbd6d158c	-0.057881877
48	0x3d63fc12	0.055660315
49	0xbd1bfa7e	-0.038080685
50	0x3d17e43e	0.037082903
51	0xbdb382ef	-0.08765208
52	0x3d549566	0.05190029
53	0xbe00cf65	-0.12579115
54	0xbdd092cc	-0.10184249
55	0x3d239e59	0.039945934
56	0x3da645d4	0.081187874
57	0x3d2f6aee	0.042826585
58	0x3d8bcb54	0.06825891
59	0xbbc322ff	-0.0059550996
60	0xbd023f29	-0.031798515
61	0xbd39c8e4	-0.0453576
62	0x3d86a200	0.06573868
63	0xbb8716ed	-0.004122606
64	0x3d74c4d9	0.05975804
65	0x3dad42b0	0.08459985
66	0xbd4ceb4b	-0.05002908
67	0xbd0b6700	-0.034033775
68	0x3c7029b2	0.014658378
69	0xbc0bbc20	-0.008528739
70	0xbe372d84	-0.17888457
71	0xbcfacd40	-0.030615449
72	0xbd8a8383	-0.06763365
73	0x3e0a9ec6	0.1353713
74	0x3d054b52	0.032542534
75	0x3e0500da	0.12988606
76	0x3b71d9e0	0.0036903545
77	0x3ba25f00	0.0049551725
78	0x3c00eac5	0.007868473
79	0xbcb159c9	-0.021649258
80	0x3cc65411	0.024210008
81	0x3d2d3ae3	0.042292487
82	0x3c868506	0.016420852
83	0xbce49ee1	-0.02790779
84	0xbce52a85	-0.027974376
85	0xbdc37b74	-0.09545031
86	0x3cca4164	0.024689384
87	0xbca63300	-0.02028799
88	0xbd4e6550	-0.050389588
89	0xba4b8ef7	-0.0007765139
90	0x3cace55e	0.021105465
91	0x3d548e12	0.0518933
92	0x3c7e60da	0.015526021
93	0x3c286e2b	0.010280172
94	0x3dca8050	0.09887755
95	0x3cb135c8	0.02163209
96	0x3dbf46d0	0.09339678
97	0xbd5f6f89	-0.054549728
98	0x3d0213db	0.031757217
99	0x3be2965d	0.0069148974
100	0xbd9ff392	-0.07810129
101	0x3d69becc	0.057066724
102	0xbcf0d04a	-0.029396195
103	0x3e333c6e	0.17503521
104	0x3c7c3298	0.015392922
105	0xbcb973a9	-0.022638159
106	0xbc97fca7	-0.018553091
107	0xbd2e1434	-0.042499736
108	0xbdd56532	-0.10419692
109	0xbd7d067b	-0.06177376
110	0x3d87f312	0.06638159
111	0x3de48854	0.11158815
112	0x3d744ed0	0.059645474
113	0x3ac33c4a	0.0014895287
114	0x3d60e087	0.054901626
115	0xbd1d751a	-0.038441755
116	0x3d8021a4	0.062564164
117	0xbe277599	-0.16353454
118	0x3cd08b82	0.025457148
119	0x3c2cb764	0.010541771
120	0xbcfd7956	-0.030941647
121	0xbd662d18	-0.05619535
122	0x3dba80a7	0.0910657
123	0xbda1253c	-0.0786843
124	0xbcb8d025	-0.022560189
125	0xbba74331	-0.0051044454
126	0xbda40470	-0.08008659
127	0x3cdb83b8	0.026796207
128	0x3cc53316	0.024072211
129	0xbddbe042	-0.10736133
130	0xbdb8ac80	-0.09017277
131	0x3d82c229	0.06384689
132	0x3cecda29	0.02891262
133	0xbdc3cbd8	-0.095603645
134	0x3c90e72f	0.017688362
135	0xbd8436dc	-0.06455776
136	0x3d2bc11e	0.041932218
137	0xbd67a31b	-0.056552034
138	0xbc4bcca5	-0.012438928
139	0x3c540b2a	0.012942115
140	0x3c795089	0.015216955
141	0x3e192443	0.14955239
142	0xbda62fca	-0.08114584
143	0x3c7ed8ee	0.01555465
144	0x3e06557c	0.13118547
145	0x3d06fc1d	0.032955278
146	0xbd7bbf81	-0.06146193
147	0xbd25e3d5	-0.04050048
148	0x3d23b784	0.039969936
149	0x3d8033f1	0.06259907
150	0x3d2161ff	0.039400097
151	0x3d88adc7	0.066737704
152	0xbc977e43	-0.018492823
153	0xbca4d07a	-0.02011894
154	0xbbd46eed	-0.00648295
155	0x3d865eb3	0.06561031
156	0xbd0f6f98	-0.035018533
157	0x3d9ed0c8	0.077546656
158	0xbc8b6fdb	-0.01702111
159	0xbdb05c78	-0.08611387
160	0xb9252748	-0.0001575026
161	0xbd22fa71	-0.03978962
162	0x3d199709	0.037497554
163	0x3c446510	0.011986986
164	0xbd0be6c2	-0.034155615
165	0xbbc2f2da	-0.0059493603
166	0x3ce7d816	0.02830128
167	0xbd7abfa4	-0.06121792
168	0xbca2059a	-0.019778062
169	0x3dc01eff	0.09380912
170	0x3d79c980	0.06098318
171	0xbd357287	-0.044298675
172	0x3d179db2	0.037015624
173	0x3d057395	0.03258093
174	0x3bc1eeac	0.0059183445
175	0x3d56004e	0.052246384
176	0xbd7fc55c	-0.062444076
177	0xbd4cf4e4	-0.050038233
178	0xbc41eba7	-0.011835969
179	0x3c6d75a5	0.014493381
180	0x3de044a5	0.10950593
181	0x3d885558	0.06656903
182	0xbd0bbb15	-0.034113962
183	0x3dfb8081	0.122803695
184	0xbbd8fe3c	-0.006622104
185	0xbd89f421	-0.06736017
186	0xbd5717f8	-0.052513093
187	0x3ace9dc4	0.001576357
188	0x3d9d2571	0.07673157
189	0x3d8f352d	0.06992564
190	0x3d746e8c	0.05967574
191	0x3da89b62	0.08232762
192	0xbd4a3560	-0.04936731
193	0xbd6dacbc	-0.05802606
194	0xbe03c4e3	-0.12868075
195	0xbc553180	-0.01301229
196	0x3d88b192	0.06674494
197	0xbdbe35f0	-0.092876315
198	0xbc87f94a	-0.016598362
199	0x3d233a76	0.039850675
200	0x3d4b25ec	0.049596712
201	0x3c085e3a	0.008323247
202	0x3db0f68a	0.086407736
203	0xbe2359d9	-0.15952243
204	0xbd56a77b	-0.052405816
205	0xbdc8a2a3	-0.097966455
206	0x3bef8a98	0.007310223
207	0xbc8a3a8d	-0.016873622
208	0xbdcd0a25	-0.100117005
209	0xbdac4531	-0.08411635
210	0xbaef0982	-0.0018237086
211	0x3cac2570	0.021013945
212	0x3c87f4fc	0.01659631
213	0x3ced924c	0.029000424
214	0xbdafc0d5	-0.08581702
215	0xbb773f3e	-0.0037726904
216	0xbe32fbe4	-0.17478901
217	0xbc30ef70	-0.010799274
218	0x3d07f2e5	0.033190627
219	0xbc0015e8	-0.007817723
220	0x3e07b207	0.13251506
221	0x3c739eee	0.014869435
222	0x3c84ed1d	0.016226346
223	0x3cb9ed29	0.022696095
224	0xbd8f1c61	-0.06987835
225	0x3d952609	0.07282645
226	0xbdb4e911	-0.088335164
227	0xbbe07403	-0.006849767
228	0x3da35c6a	0.07976611
229	0x3c385c56	0.011252483
230	0xbdaed3c9	-0.085364886
231	0x3d5bdd22	0.053677686
232	0xbd15a6e7	-0.036536124
233	0xbdebc668	-0.11512452
234	0xbc1c9bcc	-0.009558629
235	0x3d35ffcc	0.0444334
236	0xbc69a7c8	-0.014261194
237	0x3d3f2f96	0.04667624
238	0x3c69a84e	0.014261318
239	0x3c84cba4	0.016210385
240	0xbd651350	-0.05592662
241	0xbd741f0a	-0.059599914
242	0x3c5d0a24	0.013491187
243	0x3cc8f837	0.02453242
244	0xbdca7156	-0.09884898
245	0x3c568a64	0.013094518
246	0x3dbe0ed7	0.09280174
247	0x3cc25229	0.023720818
248	0xbd8fc610	-0.07020199
249	0xbc11abde	-0.008891074
250	0x3d11e31e	0.035616986
251	0xbc372ccc	-0.011180114
252	0x3da93be8	0.08263379
253	0x3ca164e2	0.019701425
254	0x3d87a946	0.06624083
255	0x3d952966	0.07283287

lstm.bias_ih_l0 f4 [256]
0	0x00000000	0.0
1	0x00000000	0.0
2	0x00000000	0.0
3	0x00000000	0.0
4	0x00000000	0.0
5	0x00000000	0.0
6	0x00000000	0.0
7	0x00000000	0.0
8	0x00000000	0.0
9	0x00000000	0.0
10	0x00000000	0.0
11	0x00000000	0.0
12	0x00000000	0.0
13	0x00000000	0.0
14	0x00000000	0.0
15	0x00000000	0.0
16	0x00000000	0.0
17	0x00000000	0.0
18	0x00000000	0.0
19	0x00000000	0.0
20	0x00000000	0.0
21	0x00000000	0.0
22	0x00000000	0.0
23	0x00000000	0.0
24	0x00000000	0.0
25	0x00000000	0.0
26	0x00000000	0.0
27	0x00000000	0.0
28	0x00000000	0.0
29	0x00000000	0.0
30	0x00000000	0.0
31	0x00000000	0.0
32	0x00000000	0.0
33	0x00000000	0.0
34	0x00000000	0.0
35	0x00000000	0.0
36	0x00000000	0.0
37	0x00000000	0.0
38	0x00000000	0.0
39	0x00000000	0.0
40	0x00000000	0.0
41	0x00000000	0.0
42	0x00000000	0.0
43	0x00000000	0.0
44	0x00000000	0.0
45	0x00000000	0.0
46	0x00000000	0.0
47	0x00000000	0.0
48	0x00000000	0.0
49	0x00000000	0.0
50	0x00000000	0.0
51	0x00000000	0.0
52	0x00000000	0.0
53	0x00000000	0.0
54	0x00000000	0.0
55	0x00000000	0.0
56	0x00000000	0.0
57	0x00000000	0.0
58	0x00000000	0.0
59	0x00000000	0.0
60	0x00000000	0.0
61	0x00000000	0.0
62	0x00000000	0.0
63	0x00000000	0.0
64	0x00000000	0.0
65	0x00000000	0.0
66	0x00000000	0.0
67	0x00000000	0.0
68	0x00000000	0.0
69	0x00000000	0.0
70	0x00000000	0.0
71	0x00000000	0.0
72	0x00000000	0.0
73	0x00000000	0.0
74	0x00000000	0.0
75	0x00000000	0.0
76	0x00000000	0.0
77	0x00000000	0.0
78	0x00000000	0.0
79	0x00000000	0.0
80	0x00000000	0.0
81	0x00000000	0.0
82	0x00000000	0.0
83	0x00000000	0.0
84	0x00000000	0.0
85	0x00000000	0.0
86	0x00000000	0.0
87	0x00000000	0.0
88	0x00000000	0.0
89	0x00000000	0.0
90	0x00000000	0.0
91	0x00000000	0.0
92	0x00000000	0.0
93	0x00000000	0.0
94	0x00000000	0.0
95	0x00000000	0.0
96	0x00000000	0.0
97	0x00000000	0.0
98	0x00000000	0.0
99	0x00000000	0.0
100	0x00000000	0.0
101	0x00000000	0.0
102	0x00000000	0.0
103	0x00000000	0.0
104	0x00000000	0.0
105	0x00000000	0.0
106	0x00000000	0.0
107	0x00000000	0.0
108	0x00000000	0.0
109	0x00000000	0.0
110	0x00000000	0.0
111	0x00000000	0.0
112	0x00000000	0.0
113	0x00000000	0.0
114	0x00000000	0.0
115	0x00000000	0.0
116	0x00000000	0.0
117	0x00000000	0.0
118	0x00000000	0.0
119	0x00000000	0.0
120	0x00000000	0.0
121	0x00000000	0.0
122	0x00000000	0.0
123	0x00000000	0.0
124	0x00000000	0.0
125	0x00000000	0.0
126	0x00000000	0.0
127	0x00000000	0.0
128	0x00000000	0.0
129	0x00000000	0.0
130	0x00000000	0.0
131	0x00000000	0.0
132	0x00000000	0.0
133	0x00000000	0.0
134	0x00000000	0.0
135	0x00000000	0.0
136	0x00000000	0.0
137	0x00000000	0.0
138	0x00000000	0.0
139	0x00000000	0.0
140	0x00000000	0.0
141	0x00000000	0.0
142	0x00000000	0.0
143	0x00000000	0.0
144	0x00000000	0.0
145	0x00000000	0.0
146	0x00000000	0.0
147	0x00000000	0.0
148	0x00000000	0.0
149	0x00000000	0.0
150	0x00000000	0.0
151	0x00000000	0.0
152	0x00000000	0.0
153	0x00000000	0.0
154	0x00000000	0.0
155	0x00000000	0.0
156	0x00000000	0.0
157	0x00000000	0.0
158	0x00000000	0.0
159	0x00000000	0.0
160	0x00000000	0.0
161	0x00000000	0.0
162	0x00000000	0.0
163	0x00000000	0.0
164	0x00000000	0.0
165	0x00000000	0.0
166	0x00000000	0.0
167	0x00000000	0.0
168	0x00000000	0.0
169	0x00000000	0.0
170	0x00000000	0.0
171	0x00000000	0.0
172	0x00000000	0.0
173	0x00000000	0.0
174	0x00000000	0.0
175	0x00000000	0.0
176	0x00000000	0.0
177	0x00000000	0.0
178	0x00000000	0.0
179	0x00000000	0.0
180	0x00000000	0.0
181	0x00000000	0.0
182	0x00000000	0.0
183	0x00000000	0.0
184	0x00000000	0.0
185	0x00000000	0.0
186	0x00000000	0.0
187	0x00000000	0.0
188	0x00000000	0.0
189	0x00000000	0.0
190	0x00000000	0.0
191	0x00000000	0.0
192	0x00000000	0.0
193	0x00000000	0.0
194	0x00000000	0.0
195	0x00000000	0.0
196	0x00000000	0.0
197	0x00000000	0.0
198	0x00000000	0.0
199	0x00000000	0.0
200	0x00000000	0.0
201	0x00000000	0.0
202	0x00000000	0.0
203	0x00000000	0.0
204	0x00000000	0.0
205	0x00000000	0.0
206	0x00000000	0.0
207	0x00000000	0.0
208	0x00000000	0.0
209	0x00000000	0.0
210	0x00000000	0.0
211	0x00000000	0.0
212	0x00000000	0.0
213	0x00000000	0.0
214	0x00000000	0.0
215	0x00000000	0.0
216	0x00000000	0.0
217	0x00000000	0.0
218	0x00000000	0.0
219	0x00000000	0.0
220	0x00000000	0.0
221	0x00000000	0.0
222	0x00000000	0.0
223	0x00000000	0.0
224	0x00000000	0.0
225	0x00000000	0.0
226	0x00000000	0.0
227	0x00000000	0.0
228	0x00000000	0.0
229	0x00000000	0.0
230	0x00000000	0.0
231	0x00000000	0.0
232	0x00000000	0.0
233	0x00000000	0.0
234	0x00000000	0.0
235	0x00000000	0.0
236	0x00000000	0.0
237	0x00000000	0.0
238	0x00000000	0.0
239	0x00000000	0.0
240	0x00000000	0.0
241	0x00000000	0.0
242	0x00000000	0.0
243	0x00000000	0.0
244	0x00000000	0.0
245	0x00000000	0.0
246	0x00000000	0.0
247	0x00000000	0.0
248	0x00000000	0.0
249	0x00000000	0.0
250	0x00000000	0.0
251	0x00000000	0.0
252	0x00000000	0.0
253	0x00000000	0.0
254	0x00000000	0.0
255	0x00000000	0.0

lstm.bias_hh_l0 f4 [256]
0	0x00000000	0.0
1	0x00000000	0.0
2	0x00000000	0.0
3	0x00000000	0.0
4	0x00000000	0.0
5	0x00000000	0.0
6	0x00000000	0.0
7	0x00000000	0.0
8	0x00000000	0.0
9	0x00000000	0.0
10	0x00000000	0.0
11	0x00000000	0.0
12	0x00000000	0.0
13	0x00000000	0.0
14	0x00000000	0.0
15	0x00000000	0.0
16	0x00000000	0.0
17	0x00000000	0.0
18	0x00000000	0.0
19	0x00000000	0.0
20	0x00000000	0.0
21	0x00000000	0.0
22	0x00000000	0.0
23	0x00000000	0.0
24	0x00000000	0.0
25	0x00000000	0.0
26	0x00000000	0.0
27	0x00000000	0.0
28	0x00000000	0.0
29	0x00000000	0.0
30	0x00000000	0.0
31	0x00000000	0.0
32	0x00000000	0.0
33	0x00000000	0.0
34	0x00000000	0.0
35	0x00000000	0.0
36	0x00000000	0.0
37	0x00000000	0.0
38	0x00000000	0.0
39	0x00000000	0.0
40	0x00000000	0.0
41	0x00000000	0.0
42	0x00000000	0.0
43	0x00000000	0.0
44	0x00000000	0.0
45	0x00000000	0.0
46	0x00000000	0.0
47	0x00000000	0.0
48	0x00000000	0.0
49	0x00000000	0.0
50	0x00000000	0.0
51	0x00000000	0.0
52	0x00000000	0.0
53	0x00000000	0.0
54	0x00000000	0.0
55	0x00000000	0.0
56	0x00000000	0.0
57	0x00000000	0.0
58	0x00000000	0.0
59	0x00000000	0.0
60	0x00000000	0.0
61	0x00000000	0.0
62	0x00000000	0.0
63	0x00000000	0.0
64	0x00000000	0.0
65	0x00000000	0.0
66	0x00000000	0.0
67	0x00000000	0.0
68	0x00000000	0.0
69	0x00000000	0.0
70	0x00000000	0.0
71	0x00000000	0.0
72	0x00000000	0.0
73	0x00000000	0.0
74	0x00000000	0.0
75	0x00000000	0.0
76	0x00000000	0.0
77	0x00000000	0.0
78	0x00000000	0.0
79	0x00000000	0.0
80	0x00000000	0.0
81	0x00000000	0.0
82	0x00000000	0.0
83	0x00000000	0.0
84	0x00000000	0.0
85	0x00000000	0.0
86	0x00000000	0.0
87	0x00000000	0.0
88	0x00000000	0.0
89	0x00000000	0.0
90	0x00000000	0.0
91	0x00000000	0.0
92	0x00000000	0.0
93	0x00000000	0.0
94	0x00000000	0.0
95	0x00000000	0.0
96	0x00000000	0.0
97	0x00000000	0.0
98	0x00000000	0.0
99	0x00000000	0.0
100	0x00000000	0.0
101	0x00000000	0.0
102	0x00000000	0.0
103	0x00000000	0.0
104	0x00000000	0.0
105	0x00000000	0.0
106	0x00000000	0.0
107	0x00000000	0.0
108	0x00000000	0.0
109	0x00000000	0.0
110	0x00000000	0.0
111	0x00000000	0.0
112	0x00000000	0.0
113	0x00000000	0.0
114	0x00000000	0.0
115	0x00000000	0.0
116	0x00000000	0.0
117	0x00000000	0.0
118	0x00000000	0.0
119	0x00000000	0.0
120	0x00000000	0.0
121	0x00000000	0.0
122	0x00000000	0.0
123	0x00000000	0.0
124	0x00000000	0.0
125	0x00000000	0.0
126	0x00000000	0.0
127	0x00000000	0.0
128	0x00000000	0.0
129	0x00000000	0.0
130	0x00000000	0.0
131	0x00000000	0.0
132	0x00000000	0.0
133	0x00000000	0.0
134	0x00000000	0.0
135	0x00000000	0.0
136	0x00000000	0.0
137	0x00000000	0.0
138	0x00000000	0.0
139	0x00000000	0.0
140	0x00000000	0.0
141	0x00000000	0.0
142	0x00000000	0.0
143	0x00000000	0.0
144	0x00000000	0.0
145	0x00000000	0.0
146	0x00000000	0.0
147	0x00000000	0.0
148	0x00000000	0.0
149	0x00000000	0.0
150	0x00000000	0.0
151	0x00000000	0.0
152	0x00000000	0.0
153	0x00000000	0.0
154	0x00000000	0.0
155	0x00000000	0.0
156	0x00000000	0.0
157	0x00000000	0.0
158	0x00000000	0.0
159	0x00000000	0.0
160	0x00000000	0.0
161	0x00000000	0.0
162	0x00000000	0.0
163	0x00000000	0.0
164	0x00000000	0.0
165	0x00000000	0.0
166	0x00000000	0.0
167	0x00000000	0.0
168	0x00000000	0.0
169	0x00000000	0.0
170	0x00000000	0.0
171	0x00000000	0.0
172	0x00000000	0.0
173	0x00000000	0.0
174	0x00000000	0.0
175	0x00000000	0.0
176	0x00000000	0.0
177	0x00000000	0.0
178	0x00000000	0.0
179	0x00000000	0.0
180	0x00000000	0.0
181	0x00000000	0.0
182	0x00000000	0.0
183	0x00000000	0.0
184	0x00000000	0.0
185	0x00000000	0.0
186	0x00000000	0.0
187	0x00000000	0.0
188	0x00000000	0.0
189	0x00000000	0.0
190	0x00000000	0.0
191	0x00000000	0.0
192	0x00000000	0.0
193	0x00000000	0.0
194	0x00000000	0.0
195	0x00000000	0.0
196	0x00000000	0.0
197	0x00000000	0.0
198	0x00000000	0.0
199	0x00000000	0.0
200	0x00000000	0.0
201	0x00000000	0.0
202	0x00000000	0.0
203	0x00000000	0.0
204	0x00000000	0.0
205	0x00000000	0.0
206	0x00000000	0.0
207	0x00000000	0.0
208	0x00000000	0.0
209	0x00000000	0.0
210	0x00000000	0.0
211	0x00000000	0.0
212	0x00000000	0.0
213	0x00000000	0.0
214	0x00000000	0.0
215	0x00000000	0.0
216	0x00000000	0.0
217	0x00000000	0.0
218	0x00000000	0.0
219	0x00000000	0.0
220	0x00000000	0.0
221	0x00000000	0.0
222	0x00000000	0.0
223	0x00000000	0.0
224	0x00000000	0.0
225	0x00000000	0.0
226	0x00000000	0.0
227	0x00000000	0.0
228	0x00000000	0.0
229	0x00000000	0.0
230	0x00000000	0.0
231	0x00000000	0.0
232	0x00000000	0.0
233	0x00000000	0.0
234	0x00000000	0.0
235	0x00000000	0.0
236	0x00000000	0.0
237	0x00000000	0.0
238	0x00000000	0.0
239	0x00000000	0.0
240	0x00000000	0.0
241	0x00000000	0.0
242	0x00000000	0.0
243	0x00000000	0.0
244	0x00000000	0.0
245	0x00000000	0.0
246	0x00000000	0.0
247	0x00000000	0.0
248	0x00000000	0.0
249	0x00000000	0.0
250	0x00000000	0.0
251	0x00000000	0.0
252	0x00000000	0.0
253	0x00000000	0.0
254	0x00000000	0.0
255	0x00000000	0.0

lstm.weight_ih_l1 f4 [256, 64]
0	0x3da7b4d0	0.08188784
1	0x3d924cbe	0.07143544
2	0x3de0b0a8	0.109711945
3	0xbd9adfb2	-0.07562198
4	0xbdcb05d0	-0.09913218
5	0xbd3bae88	-0.045820743
6	0xbda0660d	-0.07831965
7	0xbddf1a70	-0.108937144
8	0x3e04e410	0.12977624
9	0x3cf5b978	0.029995665
10	0xbe02fb69	-0.12791218
11	0x3dc6f412	0.097145215
12	0xbdd4a8d8	-0.10383767
13	0xbd2485b6	-0.04016658
14	0x3dd78f68	0.105253994
15	0x3dccd9d8	0.10002488
16	0xbdd2c1f8	-0.10290903
17	0xbda7b0f4	-0.08188048
18	0x3d666fb4	0.056258872
19	0xbdf436d4	-0.1192452
20	0xbe0998b3	-0.13437156
21	0xbcd4506c	-0.025917254
22	0x3d25140c	0.04030232
23	0xbd6a0c48	-0.05714062
24	0xbe02bc8e	-0.1276724
25	0xbdca6d4c	-0.09884128
26	0xbd19b706	-0.03752806
27	0xbdd1e8a6	-0.10249452
28	0xbd6f307a	-0.05839584
29	0x3d93ea32	0.072224036
30	0x3d3cb868	0.0460743
31	0x3d1dd178	0.038529843
32	0xbd8e5ec1	-0.069516666
33	0x3e070bc8	0.13188088
34	0xbd3183fa	-0.043338753
35	0xbd82bc43	-0.06383564
36	0x3c5e1850	0.013555601
37	0x3d3ac5b8	0.045598716
38	0x3cb19ba8	0.021680668
39	0xbdd2b11a	-0.10287686
40	0x3dd34cf6	0.103174135
41	0x3ca4f488	0.020136133
42	0xbd4d648c	-0.050144717
43	0x3e0ac5fc	0.13552088
44	0x3dff1984	0.124560386
45	0x3d8e4706	0.069471404
46	0x3dbab522	0.091165796
47	0xbd0f3974	-0.0349669
48	0x3dc77072	0.09738244
49	0x3d9eaa22	0.07747294
50	0xbd302116	-0.043000303
51	0xbe0713b1	-0.13191105
52	0x3e08f6e8	0.13375437
53	0x3d839c0c	0.06426248
54	0x3b494f00	0.0030717254
55	0x3e017b6a	0.12644735
56	0xbdaad790	-0.083418965
57	0x3dd5d3c8	0.10440785
58	0x3dc00570	0.09376037
59	0xbd42049c	-0.047367677
60	0x3df0e228	0.11761886
61	0xbd9a7621	-0.075420626
62	0x3dbaf404	0.091285735
63	0xbdf38cd6	-0.11892097
64	0x3be2ef40	0.0069254935
65	0x3d3c0d34	0.04591103
66	0xbda58968	-0.08082849
67	0xbdfb46b4	-0.12269345
68	0xbcc6450c	-0.024202846
69	0x3db4a4ec	0.08820519
70	0xbd021d4e	-0.03176623
71	0xbe01ae3e	-0.12664124
72	0x3dfee53c	0.12446067
73	0xbdbb973f	-0.09159707
74	0xbddd1c19	-0.10796375
75	0xbd442c12	-0.04789359
76	0x3c665b60	0.014059871
77	0x3da7af72	0.081877604
78	0x3db79184	0.08963302
79	0xbb369e00	-0.0027865171
80	0x3d4988dc	0.049202785
81	0x3bb34dc0	0.005471915
82	0xbdc2c530	-0.09510267
83	0x3e007ed8	0.12548387
84	0xbd594238	-0.053041667
85	0x3e05ee08	0.13079083
86	0xbe01494f	-0.12625621
87	0x3cf9aa10	0.0304766
88	0xbdb56f05	-0.08859066
89	0x3e01eede	0.12688777
90	0xbd82bad8	-0.06383294
91	0x3c896230	0.016770452
92	0x3dad1412	0.08451094
93	0x3dceb2ac	0.10092673
94	0xbd96ed3b	-0.07369467
95	0xbdbe9ebe	-0.093076214
96	0x3d328568	0.043584257
97	0x3d414e34	0.04719372
98	0x3c875578	0.016520247
99	0xbdfaaaa3	-0.122395776
100	0x3e05eb54	0.13078052
101	0x3ddd0c28	0.10793334
102	0x3b42f9c0	0.0029750913
103	0x3cfd2c50	0.030904919
104	0xbd38bf4c	-0.04510431
105	0x3da9394e	0.08262883
106	0x3d8e492a	0.06947549
107	0xbdbb51ea	-0.09146483
108	0x3d5424f4	0.051793054
109	0x3e08558a	0.1331388
110	0x3dba19a4	0.09086922
111	0x3d7ac360	0.06122148
112	0x3da181e0	0.078861
113	0xbd865fea	-0.06561263
114	0x3d2a9fd0	0.041656315
115	0xbda0419c	-0.07825014
116	0x3da8acf6	0.08236115
117	0xbdf18004	-0.11791995
118	0x3df3974c	0.11894092
119	0x3dee5cd8	0.11638802
120	0xbd8d34ae	-0.068948135
121	0xbca6f8a4	-0.020382233
122	0xbdac3680	-0.084088326
123	0xbdff0870	-0.12452781
124	0x3c944458	0.018098995
125	0xbca50f4c	-0.020148896
126	0xbe05a023	-0.13049369
127	0x3d028fa4	0.031875268
128	0x3c327430	0.010891959
129	0xbdea9ec1	-0.11456061
130	0x3d875684	0.066082984
131	0x3da720fc	0.08160588
132	0x3d8d8d2c	0.06911692
133	0x3de2a7bc	0.11067149
134	0x3de8a1a4	0.113589555
135	0xbda5e61a	-0.08100529
136	0x3defb7ec	0.11705002
137	0x3cbaa9c8	0.022786036
138	0x3b17b7c0	0.0023150295
139	0x3d5b09e4	0.05347623
140	0xbd994137	-0.07483142
141	0xbdc15586	-0.094401404
142	0xbdeffc82	-0.11718084
143	0x3da4fe1c	0.0805628
144	0x3d424b84	0.0474353
145	0x3dd5fad4	0.10448232
146	0x3d797290	0.06090027
147	0xbd4e924e	-0.050432496
148	0x3e047d72	0.12938479
149	0x3e02c0ba	0.12768832
150	0x3d9044e2	0.07044388
151	0x3ddc1a42	0.10747196
152	0xbe037c3d	-0.12840362
153	0x3da48b1e	0.08034347
154	0x3cda5cc0	0.026655555
155	0xbd14b0b4	-0.03630133
156	0xbbd91cc0	-0.0066257417
157	0xbdb91786	-0.0903769
158	0xbd4664d4	-0.048436
159	0xbd8cd091	-0.068757184
160	0x3d3110bc	0.04322885
161	0x3ddc2cd4	0.10750738
162	0x3dcd2dd8	0.100185096
163	0xbdf68e07	-0.12038808
164	0x3de8206c	0.11334309
165	0xbc782288	-0.015144952
166	0xbdd59320	-0.104284525
167	0x3c8f4698	0.017489716
168	0x3dc2d548	0.095133364
169	0x3d32aff8	0.043624848
170	0x3dd7a918	0.10530299
171	0xbc61aa28	-0.013773479
172	0xbc325920	-0.010885507
173	0xbd88df9a	-0.066832736
174	0x3cc42660	0.02394408
175	0x3debace4	0.11507586
176	0xbd8dd1da	-0.06924792
177	0xbdb9b1a4	-0.090670854
178	0x3ddc393a	0.107531026
179	0x3e067370	0.13129973
180	0x39c95400	0.00038400292
181	0xbdbf5438	-0.09342235
182	0xbe059dec	-0.13048524
183	0xbdf3a5c0	-0.11896849
184	0xbdb4339e	-0.08798908
185	0xbd086bf4	-0.033306077
186	0xbd60b00c	-0.05485539
187	0xbddc3f25	-0.10754231
188	0x3d87d928	0.06633216
189	0xbd74b34e	-0.05974131
190	0x3d40fb60	0.04711473
191	0x3d5ea904	0.054360405
192	0xbd9a78a8	-0.075425446
193	0xbdf98f28	-0.12185508
194	0xbd33f568	-0.04393521
195	0xbd6c80b0	-0.057739913
196	0x3da32c28	0.079674065
197	0xbdeffed0	-0.117185235
198	0x3e06b9fe	0.13156888
199	0xbcd27228	-0.0256892
200	0xbda580b4	-0.08081189
201	0xbd5d82ae	-0.054079704
202	0x3c8cde20	0.017195761
203	0x3bf5c160	0.0074998587
204	0x3da4111c	0.08011076
205	0xbc41a530	-0.011819169
206	0x3dbd55a0	0.09244847
207	0x3de3a5ae	0.11115585
208	0xbd17a652	-0.03702385
209	0x3dd59fca	0.10430868
210	0x3bebd2c0	0.007196754
211	0x3d5199c8	0.051172048
212	0x3d8ab686	0.06773095
213	0xbdd27851	-0.10276855
214	0x3db430a2	0.087983385
215	0x3de96b58	0.11397427
216	0xbbe090e0	-0.006853208
217	0xbe03b988	-0.12863743
218	0xbdd21558	-0.10257977
219	0xbe022910	-0.12710977
220	0x3d2a49b4	0.041574195
221	0xbe093e03	-0.13402562
222	0xbd612e3a	-0.054975726
223	0xbd3d1b50	-0.046168625
224	0x3de874ec	0.11350426
225	0x3d53f9f8	0.05175206
226	0xbd9deed4	-0.077115685
227	0xbd976a40	-0.073933125
228	0x3d148c98	0.036266893
229	0x3cd295a8	0.025706127
230	0x3cf3a620	0.0297423
231	0xbe01d503	-0.12678914
232	0xbe07a464	-0.13246304
233	0xbdc85a60	-0.09782863
234	0x3cac4b98	0.02103214
235	0x3d49fb98	0.049312204
236	0x3dab6414	0.08368698
237	0xbd8ab0bf	-0.06771993
238	0xbd4a40e2	-0.049378283
239	0x3c138b70	0.009005412
240	0x3d9df424	0.07712582
241	0xbd641872	-0.055687375
242	0x3de55252	0.11197342
243	0xbb4ac380	-0.003093928
244	0xbe02c560	-0.12770605
245	0xbd4fa068	-0.050690085
246	0x3d4d6d08	0.05015281
247	0x3dd46696	0.10371129
248	0xbde434c6	-0.11142878
249	0x3d34fbd0	0.04418546
250	0x3cd3db90	0.025861531
251	0x3de270f6	0.11056702
252	0xbde4938e	-0.11160956
253	0x3d5516ec	0.052023813
254	0xbd262578	-0.040563077
255	0xbd9ecdb5	-0.07754079

lstm.weight_hh_l1 f4 [256, 64]
0	0xbdbe5e70	-0.09295356
1	0xbdb899c9	-0.09013707
2	0xbc28cd30	-0.010302827
3	0x3d7f3b06	0.06231215
4	0x3d8a7d9d	0.0676224
5	0x3c92e0ba	0.017929424
6	0xbe1c491e	-0.15262267
7	0x3d4e506c	0.050369665
8	0xbced15fa	-0.028941143
9	0x3c32a0f6	0.010902634
10	0x39505400	0.00019867718
11	0x39dafe50	0.00041769678
12	0x3cabe724	0.02098424
13	0x3d9d8986	0.07692246
14	0x3c526090	0.012840405
15	0x3d96ac9b	0.07357141
16	0xbdbab322	-0.09116198
17	0x3c507a48	0.012724467
18	0xbc321f5c	-0.0108717345
19	0xbda9db15	-0.0829374
20	0x3c22b5bd	0.009931025
21	0xbcfb35d9	-0.030665325
22	0x3ba5bf12	0.0050581777
23	0xbb7019de	-0.0036636512
24	0xbb757223	-0.0037452064
25	0x3d31b8bb	0.043389063
26	0x3bd71024	0.0065632034
27	0xbc361b7b	-0.01111495
28	0xbd207293	-0.039171766
29	0xbc5919ea	-0.013250807
30	0xbda2094f	-0.07911932
31	0xbda394aa	-0.0798734
32	0xbd1caaa9	-0.03824869
33	0x3d50497a	0.050851323
34	0xbc8b86cc	-0.01703205
35	0xbc813c13	-0.015775716
36	0x3c7d5ddd	0.015464273
37	0x3d2d57ed	0.04232018
38	0x3c7edd92	0.015555756
39	0xbdc28569	-0.09498102
40	0xbdb42178	-0.08795446
41	0x3cb6104b	0.022224566
42	0xbd7776e5	-0.06041612
43	0xbd6734b9	-0.056446765
44	0xbcb7378a	-0.02236535
45	0x3dafef22	0.08590533
46	0x3dbef555	0.09324137
47	0xbc539008	-0.012912758
48	0x3d585fc7	0.052825715
49	0x3d8f4ba8	0.06996852
50	0xbbd9ffc7	-0.0066528055
51	0xbdf996b4	-0.121869475
52	0x3dd579f6	0.10423653
53	0x3cf264d6	0.029589098
54	0xbcace909	-0.021107214
55	0x3dc000b3	0.09375133
56	0xbdaf8550	-0.08570349
57	0xbcb3b9d4	-0.021939196
58	0xbd65dbd2	-0.05611784
59	0xbcfcc8c1	-0.030857446
60	0xbd3da3d2	-0.04629881
61	0x3c37ee28	0.0112262145
62	0x3d9877e5	0.07444743
63	0xbca50617	-0.020144505
64	0x3cfb2a88	0.030659929
65	0xbb0b4200	-0.0021249056
66	0xbd2c0e6d	-0.042005945
67	0x3cf7b328	0.030236796
68	0xbce5424e	-0.027985718
69	0x3dda50a2	0.10659911
70	0xbd8b9a7c	-0.06816575
71	0xbb068b52	-0.0020529819
72	0xbe010f14	-0.12603408
73	0x3d94a65a	0.072582915
74	0x3d240c98	0.040051073
75	0x3d128bbc	0.035777792
76	0x3cd42a2a	0.025899012
77	0xbcf524e2	-0.029924814
78	0x3da8a2b4	0.08234158
79	0xbc20ac6e	-0.009806735
80	0xbc9c9b4b	-0.019117018
81	0xbd1771c3	-0.036973726
82	0xbd894a5a	-0.067036346
83	0xbc2fb8d5	-0.01072522
84	0x3a6fe5fe	0.0009151398
85	0xbcfefa91	-0.031125339
86	0xbd5783c2	-0.05261589
87	0xbcb000ff	-0.02148485
88	0xbb76c9b5	-0.0037656848
89	0x3ce3a753	0.027789747
90	0x3d5e9d6c	0.054349348
91	0x3c084661	0.008317561
92	0x3d19d7a8	0.03755918
93	0xbd8c7016	-0.06857316
94	0x3c5c7b8e	0.013457192
95	0x3e07a7c7	0.13247596
96	0x3d2b7c42	0.04186655
97	0x3d1c4093	0.03814752
98	0xbce1bf34	-0.027556993
99	0x3d12f4c5	0.03587796
100	0xbd89f65b	-0.06736442
101	0x3d0ff054	0.035141304
102	0xbdde5cce	-0.10857545
103	0x3c7bb5b9	0.01536315
104	0x3cfc2520	0.030779421
105	0xbbb1f339	-0.0054306057
106	0xbd79f9c0	-0.061029196
107	0x3d934aea	0.07192023
108	0xbca3953d	-0.019968623
109	0xbd4e8630	-0.05042094
110	0xbc841925	-0.016125271
111	0x3d03ca90	0.0321756
112	0xbd6441e3	-0.055726897
113	0x3c10e23e	0.008843003
114	0xbd22c86a	-0.03974191
115	0xbdf9a1f8	-0.12189096
116	0xbcd66f98	-0.026176259
117	0xbcc04e51	-0.023474844
118	0x3e186eef	0.14886068
119	0x3d8f9a4f	0.07011854
120	0xbdb941e0	-0.09045768
121	0x3dde83fb	0.10865017
122	0xbdb8717f	-0.09006023
123	0x3c408069	0.011749365
124	0x3de596d3	0.11210408
125	0x3dba036a	0.090826824
126	0x3bded24b	0.006799971
127	0xbd0c7b62	-0.034297355
128	0xbdf716f8	-0.12064928
129	0xbe1e95b9	-0.15486802
130	0x3c291d00	0.010321856
131	0x3e430d88	0.1904813
132	0x3d8a18cb	0.0674301
133	0x3d0b1ddc	0.033964023
134	0xbaf6c318	-0.0018826453
135	0xbd6d0591	-0.057866637
136	0x3d5e78db	0.054314476
137	0x3a20f6b2	0.0006140276
138	0x3d3af351	0.0456422
139	0xbbde461e	-0.006783261
140	0x3d3d9785	0.04628708
141	0xbc0a0d50	-0.0084260255
142	0x3dc17dc1	0.09447814
143	0xbd410ebe	-0.0471332
144	0x3dc38794	0.09547344
145	0x3dc613d0	0.09671748
146	0x3d9542ee	0.072881564
147	0xbd9134e0	-0.07090163
148	0xbbf2e49a	-0.0074125053
149	0x3e033896	0.12814555
150	0x3c51d076	0.012806049
151	0x3d13af05	0.036055584
152	0xbda31535	-0.07963029
153	0xbdb8e9ed	-0.09028993
154	0xbd488aeb	-0.048960607
155	0xbd4e5ab4	-0.05037947
156	0x3cad4ffb	0.021156302
157	0xbe24665e	-0.16054675
158	0x3d24db44	0.04024817
159	0x3da655e0	0.08121848
160	0x3c058683	0.008149746
161	0xbd2ee1c9	-0.042695794
162	0xbd80a95a	-0.06282301
163	0x3d89c65b	0.067272864
164	0x3caf0c31	0.021368118
165	0xbd5d8236	-0.054079257
166	0x3a16a8ce	0.00057472
167	0x3d12ed64	0.035870925
168	0x3d0db1f0	0.034593523
169	0xbdc59c06	-0.096489
170	0xbc789640	-0.015172541
171	0x3cc3a312	0.023881469
172	0xbc86fe64	-0.016478725
173	0xbde0c7ad	-0.10975585
174	0xbce0d58b	-0.027445575
175	0x3d7d8b17	0.061900225
176	0xbb8ed117	-0.0043584215
177	0xbbc0bc9a	-0.005881858
178	0x3c8de3da	0.017320562
179	0x3c16de45	0.009208267
180	0xbd1c8ffa	-0.038223244
181	0x3d39e8b2	0.04538793
182	0xbcfc57ea	-0.03080364
183	0x3d779330	0.060443103
184	0xbcecc646	-0.028903138
185	0x3cc3e9f8	0.023915276
186	0x3e10b45c	0.14131302
187	0xbc4f62d0	-0.012657836
188	0xbc9ec3a1	-0.019380393
189	0xbd321a8f	-0.04348236
190	0xbc6ddf78	-0.014518611
191	0xbc6a17b0	-0.014287874
192	0x3ddec318	0.10877055
193	0x3d1f6773	0.038917016
194	0x3afa3bb2	0.0019091277
195	0x3c501c80	0.012702107
196	0xbca7f1c6	-0.020501029
197	0x3c9d8572	0.01922867
198	0xbd33ee1d	-0.043928254
199	0xbc268dde	-0.01016566
200	0xbb3b59a0	-0.0028587356
201	0x3bc08d98	0.0058762543
202	0x3d88b0fb	0.06674381
203	0x3d2d5270	0.042314947
204	0xbd0662b6	-0.03280898
205	0x3ce5ca49	0.028050559
206	0x3daff987	0.085925154
207	0x3e13efcb	0.14446943
208	0x3dc03705	0.09385494
209	0x3d53f036	0.051742755
210	0x3b87d937	0.004145767
211	0x3d26b886	0.04070332
212	0x3d629acc	0.055323407
213	0xbc14fd7b	-0.009093638
214	0xbd0d9e5a	-0.034574844
215	0x3d0429bb	0.03226636
216	0x3ca61ce8	0.020277455
217	0xbd0a504c	-0.033767983
218	0xbcbd8048	-0.023132458
219	0xbce0029b	-0.027344992
220	0xbd0f7b48	-0.03502968
221	0xbc3c05aa	-0.01147596
222	0x3d93c9d6	0.072162315
223	0xbcbefffe	-0.023315426
224	0xbb3c49a7	-0.0028730424
225	0x3d02f3d6	0.03197082
226	0xbdcd7117	-0.10031336
227	0xbd8eda62	-0.06975247
228	0x3d1e8ac1	0.038706545
229	0xbda1f278	-0.07907575
230	0x3d1f082e	0.03882616
231	0xbcaa24e4	-0.020769544
232	0xbd542006	-0.051788352
233	0xbd912265	-0.07086638
234	0xbd72ec4c	-0.05930738
235	0xbd0ad4d8	-0.03389439
236	0xbd5fb65e	-0.05461728
237	0x3c70bbb1	0.014693187
238	0xbca472dc	-0.0200743
239	0xbcd85e63	-0.026412195
240	0xbc9e2d93	-0.01930884
241	0xbe0002e2	-0.125011
242	0x3d5361f6	0.051607095
243	0xbdab73e3	-0.08371713
244	0x3e16ad23	0.14714484
245	0xbe0600df	-0.1308627
246	0x3ca81ab2	0.020520542
247	0xbcea70da	-0.028618265
248	0xbd0568ed	-0.03257077
249	0xbdd17fb9	-0.10229439
250	0xbd5b5fb6	-0.053558074
251	0xbd63e09b	-0.055634122
252	0x3d32ba44	0.043634668
253	0xbb354429	-0.0027659035
254	0xbd53b24f	-0.05168372
255	0xbdf36820	-0.11885095

lstm.bias_ih_l1 f4 [256]
0	0x00000000	0.0
1	0x00000000	0.0
2	0x00000000	0.0
3	0x00000000	0.0
4	0x00000000	0.0
5	0x00000000	0.0
6	0x00000000	0.0
7	0x00000000	0.0
8	0x00000000	0.0
9	0x00000000	0.0
10	0x00000000	0.0
11	0x00000000	0.0
12	0x00000000	0.0
13	0x00000000	0.0
14	0x00000000	0.0
15	0x00000000	0.0
16	0x00000000	0.0
17	0x00000000	0.0
18	0x00000000	0.0
19	0x00000000	0.0
20	0x00000000	0.0
21	0x00000000	0.0
22	0x00000000	0.0
23	0x00000000	0.0
24	0x00000000	0.0
25	0x00000000	0.0
26	0x00000000	0.0
27	0x00000000	0.0
28	0x00000000	0.0
29	0x00000000	0.0
30	0x00000000	0.0
31	0x00000000	0.0
32	0x00000000	0.0
33	0x00000000	0.0
34	0x00000000	0.0
35	0x00000000	0.0
36	0x00000000	0.0
37	0x00000000	0.0
38	0x00000000	0.0
39	0x00000000	0.0
40	0x00000000	0.0
41	0x00000000	0.0
42	0x00000000	0.0
43	0x00000000	0.0
44	0x00000000	0.0
45	0x00000000	0.0
46	0x00000000	0.0
47	0x00000000	0.0
48	0x00000000	0.0
49	0x00000000	0.0
50	0x00000000	0.0
51	0x00000000	0.0
52	0x00000000	0.0
53	0x00000000	0.0
54	0x00000000	0.0
55	0x00000000	0.0
56	0x00000000	0.0
57	0x00000000	0.0
58	0x00000000	0.0
59	0x00000000	0.0
60	0x00000000	0.0
61	0x00000000	0.0
62	0x00000000	0.0
63	0x00000000	0.0
64	0x00000000	0.0
65	0x00000000	0.0
66	0x00000000	0.0
67	0x00000000	0.0
68	0x00000000	0.0
69	0x00000000	0.0
70	0x00000000	0.0
71	0x00000000	0.0
72	0x00000000	0.0
73	0x00000000	0.0
74	0x00000000	0.0
75	0x00000000	0.0
76	0x00000000	0.0
77	0x00000000	0.0
78	0x00000000	0.0
79	0x00000000	0.0
80	0x00000000	0.0
81	0x00000000	0.0
82	0x00000000	0.0
83	0x00000000	0.0
84	0x00000000	0.0
85	0x00000000	0.0
86	0x00000000	0.0
87	0x00000000	0.0
88	0x00000000	0.0
89	0x00000000	0.0
90	0x00000000	0.0
91	0x00000000	0.0
92	0x00000000	0.0
93	0x00000000	0.0
94	0x00000000	0.0
95	0x00000000	0.0
96	0x00000000	0.0
97	0x00000000	0.0
98	0x00000000	0.0
99	0x00000000	0.0
100	0x00000000	0.0
101	0x00000000	0.0
102	0x00000000	0.0
103	0x00000000	0.0
104	0x00000000	0.0
105	0x00000000	0.0
106	0x00000000	0.0
107	0x00000000	0.0
108	0x00000000	0.0
109	0x00000000	0.0
110	0x00000000	0.0
111	0x00000000	0.0
112	0x00000000	0.0
113	0x00000000	0.0
114	0x00000000	0.0
115	0x00000000	0.0
116	0x00000000	0.0
117	0x00000000	0.0
118	0x00000000	0.0
119	0x00000000	0.0
120	0x00000000	0.0
121	0x00000000	0.0
122	0x00000000	0.0
123	0x00000000	0.0
124	0x00000000	0.0
125	0x00000000	0.0
126	0x00000000	0.0
127	0x00000000	0.0
128	0x00000000	0.0
129	0x00000000	0.0
130	0x00000000	0.0
131	0x00000000	0.0
132	0x00000000	0.0
133	0x00000000	0.0
134	0x00000000	0.0
135	0x00000000	0.0
136	0x00000000	0.0
137	0x00000000	0.0
138	0x00000000	0.0
139	0x00000000	0.0
140	0x00000000	0.0
141	0x00000000	0.0
142	0x00000000	0.0
143	0x00000000	0.0
144	0x00000000	0.0
145	0x00000000	0.0
146	0x00000000	0.0
147	0x00000000	0.0
148	0x00000000	0.0
149	0x00000000	0.0
150	0x00000000	0.0
151	0x00000000	0.0
152	0x00000000	0.0
153	0x00000000	0.0
154	0x00000000	0.0
155	0x00000000	0.0
156	0x00000000	0.0
157	0x00000000	0.0
158	0x00000000	0.0
159	0x00000000	0.0
160	0x00000000	0.0
161	0x00000000	0.0
162	0x00000000	0.0
163	0x00000000	0.0
164	0x00000000	0.0
165	0x00000000	0.0
166	0x00000000	0.0
167	0x00000000	0.0
168	0x00000000	0.0
169	0x00000000	0.0
170	0x00000000	0.0
171	0x00000000	0.0
172	0x00000000	0.0
173	0x00000000	0.0
174	0x00000000	0.0
175	0x00000000	0.0
176	0x00000000	0.0
177	0x00000000	0.0
178	0x00000000	0.0
179	0x00000000	0.0
180	0x00000000	0.0
181	0x00000000	0.0
182	0x00000000	0.0
183	0x00000000	0.0
184	0x00000000	0.0
185	0x00000000	0.0
186	0x00000000	0.0
187	0x00000000	0.0
188	0x00000000	0.0
189	0x00000000	0.0
190	0x00000000	0.0
191	0x00000000	0.0
192	0x00000000	0.0
193	0x00000000	0.0
194	0x00000000	0.0
195	0x00000000	0.0
196	0x00000000	0.0
197	0x00000000	0.0
198	0x00000000	0.0
199	0x00000000	0.0
200	0x00000000	0.0
201	0x00000000	0.0
202	0x00000000	0.0
203	0x00000000	0.0
204	0x00000000	0.0
205	0x00000000	0.0
206	0x00000000	0.0
207	0x00000000	0.0
208	0x00000000	0.0
209	0x00000000	0.0
210	0x00000000	0.0
211	0x00000000	0.0
212	0x00000000	0.0
213	0x00000000	0.0
214	0x00000000	0.0
215	0x00000000	0.0
216	0x00000000	0.0
217	0x00000000	0.0
218	0x00000000	0.0
219	0x00000000	0.0
220	0x00000000	0.0
221	0x00000000	0.0
222	0x00000000	0.0
223	0x00000000	0.0
224	0x00000000	0.0
225	0x00000000	0.0
226	0x00000000	0.0
227	0x00000000	0.0
228	0x00000000	0.0
229	0x00000000	0.0
230	0x00000000	0.0
231	0x00000000	0.0
232	0x00000000	0.0
233	0x00000000	0.0
234	0x00000000	0.0
235	0x00000000	0.0
236	0x00000000	0.0
237	0x00000000	0.0
238	0x00000000	0.0
239	0x00000000	0.0
240	0x00000000	0.0
241	0x00000000	0.0
242	0x00000000	0.0
243	0x00000000	0.0
244	0x00000000	0.0
245	0x00000000	0.0
246	0x00000000	0.0
247	0x00000000	0.0
248	0x00000000	0.0
249	0x00000000	0.0
250	0x00000000	0.0
251	0x00000000	0.0
252	0x00000000	0.0
253	0x00000000	0.0
254	0x00000000	0.0
255	0x00000000	0.0

lstm.bias_hh_l1 f4 [256]
0	0x00000000	0.0
1	0x00000000	0.0
2	0x00000000	0.0
3	0x00000000	0.0
4	0x00000000	0.0
5	0x00000000	0.0
6	0x00000000	0.0
7	0x00000000	0.0
8	0x00000000	0.0
9	0x00000000	0.0
10	0x00000000	0.0
11	0x00000000	0.0
12	0x00000000	0.0
13	0x00000000	0.0
14	0x00000000	0.0
15	0x00000000	0.0
16	0x00000000	0.0
17	0x00000000	0.0
18	0x00000000	0.0
19	0x00000000	0.0
20	0x00000000	0.0
21	0x00000000	0.0
22	0x00000000	0.0
23	0x00000000	0.0
24	0x00000000	0.0
25	0x00000000	0.0
26	0x00000000	0.0
27	0x00000000	0.0
28	0x00000000	0.0
29	0x00000000	0.0
30	0x00000000	0.0
31	0x00000000	0.0
32	0x00000000	0.0
33	0x00000000	0.0
34	0x00000000	0.0
35	0x00000000	0.0
36	0x00000000	0.0
37	0x00000000	0.0
38	0x00000000	0.0
39	0x00000000	0.0
40	0x00000000	0.0
41	0x00000000	0.0
42	0x00000000	0.0
43	0x00000000	0.0
44	0x00000000	0.0
45	0x00000000	0.0
46	0x00000000	0.0
47	0x00000000	0.0
48	0x00000000	0.0
49	0x00000000	0.0
50	0x00000000	0.0
51	0x00000000	0.0
52	0x00000000	0.0
53	0x00000000	0.0
54	0x00000000	0.0
55	0x00000000	0.0
56	0x00000000	0.0
57	0x00000000	0.0
58	0x00000000	0.0
59	0x00000000	0.0
60	0x00000000	0.0
61	0x00000000	0.0
62	0x00000000	0.0
63	0x00000000	0.0
64	0x00000000	0.0
65	0x00000000	0.0
66	0x00000000	0.0
67	0x00000000	0.0
68	0x00000000	0.0
69	0x00000000	0.0
70	0x00000000	0.0
71	0x00000000	0.0
72	0x00000000	0.0
73	0x00000000	0.0
74	0x00000000	0.0
75	0x00000000	0.0
76	0x00000000	0.0
77	0x00000000	0.0
78	0x00000000	0.0
79	0x00000000	0.0
80	0x00000000	0.0
81	0x00000000	0.0
82	0x00000000	0.0
83	0x00000000	0.0
84	0x00000000	0.0
85	0x00000000	0.0
86	0x00000000	0.0
87	0x00000000	0.0
88	0x00000000	0.0
89	0x00000000	0.0
90	0x00000000	0.0
91	0x00000000	0.0
92	0x00000000	0.0
93	0x00000000	0.0
94	0x00000000	0.0
95	0x00000000	0.0
96	0x00000000	0.0
97	0x00000000	0.0
98	0x00000000	0.0
99	0x00000000	0.0
100	0x00000000	0.0
101	0x00000000	0.0
102	0x00000000	0.0
103	0x00000000	0.0
104	0x00000000	0.0
105	0x00000000	0.0
106	0x00000000	0.0
107	0x00000000	0.0
108	0x00000000	0.0
109	0x00000000	0.0
110	0x00000000	0.0
111	0x00000000	0.0
112	0x00000000	0.0
113	0x00000000	0.0
114	0x00000000	0.0
115	0x00000000	0.0
116	0x00000000	0.0
117	0x00000000	0.0
118	0x00000000	0.0
119	0x00000000	0.0
120	0x00000000	0.0
121	0x00000000	0.0
122	0x00000000	0.0
123	0x00000000	0.0
124	0x00000000	0.0
125	0x00000000	0.0
126	0x00000000	0.0
127	0x00000000	0.0
128	0x00000000	0.0
129	0x00000000	0.0
130	0x00000000	0.0
131	0x00000000	0.0
132	0x00000000	0.0
133	0x00000000	0.0
134	0x00000000	0.0
135	0x00000000	0.0
136	0x00000000	0.0
137	0x00000000	0.0
138	0x00000000	0.0
139	0x00000000	0.0
140	0x00000000	0.0
141	0x00000000	0.0
142	0x00000000	0.0
143	0x00000000	0.0
144	0x00000000	0.0
145	0x00000000	0.0
146	0x00000000	0.0
147	0x00000000	0.0
148	0x00000000	0.0
149	0x00000000	0.0
150	0x00000000	0.0
151	0x00000000	0.0
152	0x00000000	0.0
153	0x00000000	0.0
154	0x00000000	0.0
155	0x00000000	0.0
156	0x00000000	0.0
157	0x00000000	0.0
158	0x00000000	0.0
159	0x00000000	0.0
160	0x00000000	0.0
161	0x00000000	0.0
162	0x00000000	0.0
163	0x00000000	0.0
164	0x00000000	0.0
165	0x00000000	0.0
166	0x00000000	0.0
167	0x00000000	0.0
168	0x00000000	0.0
169	0x00000000	0.0
170	0x00000000	0.0
171	0x00000000	0.0
172	0x00000000	0.0
173	0x00000000	0.0
174	0x00000000	0.0
175	0x00000000	0.0
176	0x00000000	0.0
177	0x00000000	0.0
178	0x00000000	0.0
179	0x00000000	0.0
180	0x00000000	0.0
181	0x00000000	0.0
182	0x00000000	0.0
183	0x00000000	0.0
184	0x00000000	0.0
185	0x00000000	0.0
186	0x00000000	0.0
187	0x00000000	0.0
188	0x00000000	0.0
189	0x00000000	0.0
190	0x00000000	0.0
191	0x00000000	0.0
192	0x00000000	0.0
193	0x00000000	0.0
194	0x00000000	0.0
195	0x00000000	0.0
196	0x00000000	0.0
197	0x00000000	0.0
198	0x00000000	0.0
199	0x00000000	0.0
200	0x00000000	0.0
201	0x00000000	0.0
202	0x00000000	0.0
203	0x00000000	0.0
204	0x00000000	0.0
205	0x00000000	0.0
206	0x00000000	0.0
207	0x00000000	0.0
208	0x00000000	0.0
209	0x00000000	0.0
210	0x00000000	0.0
211	0x00000000	0.0
212	0x00000000	0.0
213	0x00000000	0.0
214	0x00000000	0.0
215	0x00000000	0.0
216	0x00000000	0.0
217	0x00000000	0.0
218	0x00000000	0.0
219	0x00000000	0.0
220	0x00000000	0.0
221	0x00000000	0.0
222	0x00000000	0.0
223	0x00000000	0.0
224	0x00000000	0.0
225	0x00000000	0.0
226	0x00000000	0.0
227	0x00000000	0.0
228	0x00000000	0.0
229	0x00000000	0.0
230	0x00000000	0.0
231	0x00000000	0.0
232	0x00000000	0.0
233	0x00000000	0.0
234	0x00000000	0.0
235	0x00000000	0.0
236	0x00000000	0.0
237	0x00000000	0.0
238	0x00000000	0.0
239	0x00000000	0.0
240	0x00000000	0.0
241	0x00000000	0.0
242	0x00000000	0.0
243	0x00000000	0.0
244	0x00000000	0.0
245	0x00000000	0.0
246	0x00000000	0.0
247	0x00000000	0.0
248	0x00000000	0.0
249	0x00000000	0.0
250	0x00000000	0.0
251	0x00000000	0.0
252	0x00000000	0.0
253	0x00000000	0.0
254	0x00000000	0.0
255	0x00000000	0.0

fc.weight f4 [1, 64]
0	0x3cf04170	0.029328078
1	0xbe72065c	-0.23635238
2	0xbe8519ea	-0.25996333
3	0xbdf4fa1e	-0.119617686
4	0xbe055a96	-0.13022837
5	0xbcfc0bf0	-0.030767411
6	0x3e4751c2	0.19464782
7	0x3e379b24	0.17930275
8	0xbcf4aa20	-0.029866278
9	0xbe2a829a	-0.16651383
10	0x3e834f06	0.25646228
11	0xbe041633	-0.12899093
12	0x3ddc2ff8	0.10751337
13	0x3dce044c	0.10059413
14	0xbc1819a0	-0.009283453
15	0x3e8ad4d4	0.271155
16	0xbe6c34e5	-0.23067053
17	0xbe9123b9	-0.28347567
18	0xbc3bbaa0	-0.011458069
19	0x3e065ce6	0.13121375
20	0x3e494178	0.1965388
21	0x3e8c168c	0.27360952
22	0x3bc38fc0	0.005968064
23	0xbdf3c85c	-0.1190345
24	0x3dd32dc4	0.103114635
25	0x3d274b48	0.04084328
26	0x3d51a890	0.051186144
27	0x3e0d8838	0.13821495
28	0xbcf32c40	-0.029684186
29	0xbe885cf2	-0.26633412
30	0xbe411b8c	-0.18858165
31	0x3d726d50	0.05918628
32	0x3e90f302	0.283104
33	0x3da13994	0.0787231
34	0x3e129fb2	0.14318731
35	0xbdb8b270	-0.09018409
36	0xbe485bf5	-0.19566329
37	0xbe2f3afc	-0.17112345
38	0x3c6f9f20	0.014625341
39	0xbc0452e0	-0.0080764
40	0xbe93e493	-0.28885326
41	0xbe7b3dc2	-0.24535277
42	0xbe61adfa	-0.22039023
43	0xbdeb2b56	-0.11482875
44	0x3e0fe9f6	0.14054093
45	0x3e3eca14	0.18631774
46	0x3d9219cc	0.071338266
47	0x3e3ccb2a	0.18436876
48	0xbe98135c	-0.2970227
49	0xbe6d5525	-0.23177011
50	0x3e8421f8	0.25807166
51	0xbe6ca097	-0.23108135
52	0x3e101c6e	0.14073345
53	0x3da20268	0.07910615
54	0xbc9eece0	-0.01940006
55	0xbe45c693	-0.19314031
56	0xbe26c480	-0.16285896
57	0x3e6f5f6c	0.23376244
58	0xbe8b12c0	-0.27162743
59	0xbdaa7278	-0.083226144
60	0x3e674580	0.22585106
61	0xbe83e8ca	-0.2576354
62	0xbb43a500	-0.0029852986
63	0xbe66cbad	-0.22538634
