NDX/result/garch_lstm_best_model.pth (torch, 829756 bytes, 9 tensors)

lstm.weight_ih_l0 f4 [512, 15]
0	0xbed69cb9	-0.41916445
1	0x3dcf4707	0.10120969
2	0x3e545f46	0.20739469
3	0x3d6d27a1	0.05789912
4	0x3d253e5e	0.04034268
5	0x3efbce3d	0.49180785
6	0xbeaf79df	-0.34272668
7	0xbf027853	-0.5096485
8	0xbef7d93a	-0.48407918
9	0x3dae9ad5	0.085256256
10	0xbc26d6d2	-0.010183053
11	0x3e515c60	0.20445395
12	0xbcdb5025	-0.026771614
13	0x3ea7d11e	0.3277673
14	0x3e52a73f	0.20571612
15	0x3e1f2138	0.15540016
16	0xbdcb4098	-0.0992443
17	0xbb862c5b	-0.004094643
18	0xbcb72d72	-0.022360537
19	0xbd938be8	-0.072044194
20	0xbde6dafd	-0.112722374
21	0xbdfcd20b	-0.1234475
22	0x3d021feb	0.03176872
23	0x3d374976	0.044747792
24	0x3beb4007	0.0071792635
25	0xbd542ef3	-0.051802587
26	0x3d3a3aee	0.045466356
27	0x3b85dbe0	0.004085049
28	0xbe94fe9f	-0.2910051
29	0xbe0ae029	-0.13562073
30	0x3dfeac08	0.12435156
31	0xbded8e55	-0.11599413
32	0xbd4143fe	-0.047183983
33	0x3deec141	0.11657954
34	0xbdbf5f9e	-0.093444094
35	0xbcb9b3e6	-0.02266879
36	0x3e901918	0.28144145
37	0x3e1c7f20	0.1528287
38	0x3dfff14a	0.12497194
39	0xbd622ff5	-0.055221517
40	0x3db8eb2e	0.09029232
41	0xbe34fd72	-0.17674807
42	0xbdfcb0a5	-0.1233838
43	0xbe0afeb4	-0.13573724
44	0xbe346bde	-0.17619273
45	0x3e49d870	0.1971147
46	0x3d4d3fd4	0.0501097
47	0x3cdc4462	0.026888076
48	0x3d3d72c4	0.046252027
49	0xbd061fdd	-0.03274523
50	0xbe327acc	-0.17429656
51	0x3db7e51e	0.089792475
52	0x3e41ba97	0.18918835
53	0x3daec751	0.0853411
54	0xbd7b8b15	-0.061411936
55	0xbdcbec9a	-0.099572375
56	0x3c050794	0.008119483
57	0x3e1113b4	0.14167672
58	0x3bcff43c	0.0063462537
59	0x3c877bdf	0.016538559
60	0x3e2ce016	0.16882357
61	0xbbe145c2	-0.006874771
62	0x3c96164e	0.018321183
63	0x3d118c38	0.035534114
64	0xbd90aa71	-0.07063759
65	0xbe3cd80b	-0.18441789
66	0xbc140bbb	-0.009036
67	0x3da42865	0.08015517
68	0x3e53ef2e	0.20696709
69	0xbdc58278	-0.096440256
70	0xbcb175a7	-0.021662546
71	0x3e234205	0.15943153
72	0x3dc66d9d	0.09688876
73	0x3eb501c6	0.35352916
74	0x3e1b8014	0.15185577
75	0x3e9cc0c7	0.30615827
76	0xbe815ff9	-0.25268534
77	0xbe745441	-0.23860265
78	0xbd83ecf3	-0.06441679
79	0xbe4c815c	-0.19971222
80	0xbd322fbd	-0.043502558
81	0x3dc0d554	0.09415689
82	0x3de44a06	0.11146931
83	0x3cb19477	0.021677239
84	0x3e833df7	0.25633213
85	0x3e24e10f	0.16101478
86	0x3d18d0c0	0.037308455
87	0x3d80034b	0.06250628
88	0x3eb4fc11	0.3534856
89	0x3e94e830	0.29083395
90	0x3e45733a	0.19282237
91	0x3c60a7c3	0.0137118725
92	0xbd5c65c6	-0.053807996
93	0x3d371a19	0.044702623
94	0xbde36b40	-0.11104441
95	0xbdc192ed	-0.09451852
96	0x3dcf6782	0.101271644
97	0x3d00e7dd	0.031471122
98	0x3dcecc50	0.10097563
99	0xbcc33975	-0.023831109
100	0x3da1267b	0.07868668
101	0x3d199820	0.037498593
102	0x3e4df969	0.20114674
103	0x3e881074	0.26575053
104	0x3e487d93	0.19579153
105	0x3e6c3ccc	0.23070067
106	0x3dfa5b96	0.122245
107	0x3e5bc636	0.2146233
108	0x3e957698	0.29192042
109	0x3e85c758	0.2612865
110	0xbd4a2bd0	-0.04935819
111	0x3e4a011a	0.19726983
112	0x3e7e3c5a	0.2482771
113	0x3e9ffb10	0.31246233
114	0xbdf953a5	-0.12174157
115	0xbe20f768	-0.15719378
116	0x3cc8319d	0.02443772
117	0x3d06015d	0.032716144
118	0xbebd5e6d	-0.36986104
119	0xbe833322	-0.2562495
120	0x3de349bc	0.11098048
121	0x3d335a8f	0.043787535
122	0x3dd3334a	0.10312517
123	0xbc786e4d	-0.0151630165
124	0x3dfdc5fb	0.123912774
125	0x3c692d45	0.0142319845
126	0x3e00dce1	0.12584259
127	0x3e391fed	0.18078585
128	0x3e052d98	0.13005674
129	0x3e12f6ac	0.1435191
130	0x3e12358f	0.14278243
131	0x3e048337	0.1294068
132	0x3e059cef	0.13048147
133	0x3bdc3b1d	0.006720914
134	0x3c717eb5	0.014739682
135	0x3d3eeeb3	0.04661436
136	0x3da750ba	0.08169694
137	0x3de6943d	0.11258743
138	0x3da46f9a	0.08029099
139	0x3c141833	0.009038973
140	0x3dc181aa	0.094485596
141	0x3debea4b	0.11519297
142	0x3e326369	0.17420734
143	0x3e40a8e6	0.1881443
144	0xbda84c9c	-0.08217737
145	0xbd104a24	-0.035226956
146	0x3e06ddab	0.13170497
147	0x3e5f43ad	0.2180316
148	0x3f25374f	0.6453752
149	0x3ec4f0cf	0.38464972
150	0xbd2910b8	-0.04127571
151	0x3ea2b787	0.31780645
152	0x3e51f2d5	0.2050279
153	0x3e33b69e	0.17550132
154	0x3e4bda1a	0.19907418
155	0xbe06cd85	-0.13164337
156	0xbe14b540	-0.14522266
157	0xbe4c454f	-0.19948314
158	0xbe0f5ca8	-0.1400019
159	0xbe594f33	-0.21221618
160	0xbe5a3487	-0.213091
161	0xbe22380f	-0.15841697
162	0xbe1f72ed	-0.15571184
163	0xbd22f7ef	-0.03978723
164	0xbda345ae	-0.07972275
165	0xbddf75d0	-0.10911143
166	0x3e817cc6	0.25290507
167	0x3e9c2398	0.30495906
168	0x3e17a2b8	0.14808166
169	0x3e808650	0.25102472
170	0xbdacb1e6	-0.08432369
171	0xbbe92a1b	-0.007115615
172	0xbd880d75	-0.06643192
173	0xbd0f1d7a	-0.03494022
174	0xbe2187c3	-0.15774445
175	0xbe42fb8a	-0.19041267
176	0xbea4a4c0	-0.32156944
177	0xbe4c393f	-0.19943713
178	0xbeade43d	-0.33963194
179	0xbeb1d9c1	-0.34736446
180	0xbce41aea	-0.027844865
181	0x3e3a76c7	0.18209372
182	0x3d185348	0.0371888
183	0x3e49c06d	0.19702311
184	0x3d14df1d	0.03634559
185	0x3cae5729	0.021281796
186	0x3e3f6d92	0.18694142
187	0x3dedcfdd	0.116119124
188	0x3db59cb8	0.08867782
189	0x3e29bf8d	0.16576977
190	0x3e29b8e2	0.16574433
191	0x3e1c0c50	0.15239072
192	0x3d8f77fb	0.07005306
193	0x3eb25d54	0.3483683
194	0x3dcb8373	0.09937181
195	0x3d6f021b	0.058351617
196	0x3e12ab44	0.14323145
197	0x3e0dbc3f	0.13841341
198	0x3e2c3a8c	0.16819209
199	0x3da48fd2	0.08035244
200	0x3da96e39	0.082729764
201	0xbd76c715	-0.060248453
202	0x3e2237bb	0.15841572
203	0x3d326952	0.043557473
204	0x3c5a7e64	0.013335798
205	0x3d5b22c8	0.053499967
206	0x3e090817	0.13381992
207	0x3e279916	0.16366991
208	0x3e957e7f	0.2919807
209	0x3e09de07	0.13463603
210	0x3e576111	0.21033122
211	0xbdb66e69	-0.08907778
212	0xbe3250dc	-0.17413658
213	0xbe5d3bd9	-0.21604861
214	0xbe067cd5	-0.13133557
215	0x3efb8ab4	0.4912926
216	0x3e3d8f78	0.1851176
217	0x3e83bb7a	0.2572897
218	0x3e63fdc2	0.2226477
219	0x3f07bbad	0.53020746
220	0x3e952d65	0.29136196
221	0x3df44990	0.119280934
222	0x3d8a3d4a	0.06749971
223	0x3e49b365	0.1969734
224	0x3e28ff38	0.16503608
225	0x3d71e7d3	0.059058975
226	0x3d324bbf	0.04352927
227	0x3d9ee793	0.07759013
228	0x3be914bf	0.007113069
229	0xbdc14c17	-0.09438341
230	0xbc948d12	-0.018133674
231	0x3e08c96d	0.13358088
232	0x3e8b4457	0.27200577
233	0x3de2a5a5	0.110667504
234	0x3e8a3833	0.26996002
235	0x3da22e3a	0.07918973
236	0xbbb1feb4	-0.0054319743
237	0xbd271811	-0.040794436
238	0xbc063c77	-0.008193127
239	0x3e0313f9	0.12800588
240	0xbb8ca34c	-0.0042919274
241	0x3d8474c0	0.06467581
242	0x3bc61508	0.0060449876
243	0x3d72ea77	0.059305634
244	0x3c88a0aa	0.016678173
245	0xbe1f4dfc	-0.15557092
246	0xbdf81c0f	-0.12114727
247	0xbe2063a0	-0.15663004
248	0xbdd9b59d	-0.10630343
249	0x3ce6d5b8	0.02817808
250	0x3ce2f34a	0.0277039
251	0xbe8c82cf	-0.2744355
252	0xbe218b13	-0.15775709
253	0xbe5d95e3	-0.21639208
254	0xbdf9b95f	-0.1219356
255	0x3ebbcdaa	0.36680347

lstm.weight_hh_l0 f4 [512, 128]
0	0x3e572193	0.21008901
1	0x3e07bd3c	0.13255781
2	0xbe04f5a1	-0.12984325
3	0xbe22b717	-0.15890156
4	0xbe32ae4b	-0.174493
5	0xbdb2854e	-0.08716832
6	0x3cbdea48	0.023183003
7	0xbe8f9522	-0.28043467
8	0xbe95eaf0	-0.29280806
9	0xbe7e0a13	-0.2480853
10	0xbe251c5c	-0.161241
11	0x3ec2e5c8	0.38065934
12	0x3e4299b7	0.1900395
13	0xbe828d44	-0.25498402
14	0x3d801806	0.06254582
15	0xbe30d928	-0.17270339
16	0x3f063c2d	0.5243557
17	0xbe2b1770	-0.1670816
18	0xbb6b19b0	-0.0035873465
19	0xbdb86601	-0.09003831
20	0x3dc70896	0.097184345
21	0x3e6217c3	0.22079377
22	0xbe87d8bd	-0.26532546
23	0xbe2c2a92	-0.16813114
24	0x3d0d9d23	0.034573685
25	0x3dfb06ca	0.12257154
26	0xbd608087	-0.054810073
27	0xbda1c58f	-0.078990094
28	0x3dc77d61	0.09740711
29	0xbd047c9b	-0.032345396
30	0xbe5093e0	-0.2036891
31	0xbe84a9c6	-0.25910777
32	0x3e680e46	0.22661695
33	0xbd0ca098	-0.03433284
34	0xbe02df2c	-0.12780446
35	0xbcfde4df	-0.030992923
36	0xbee976f5	-0.4559857
37	0xbe4a0948	-0.19730103
38	0x3e7e34e9	0.24824871
39	0xbe9112b6	-0.28334588
40	0xbd88bf53	-0.06677117
41	0x3e9eced0	0.3101716
42	0xbd99b59e	-0.07505344
43	0x3da71fa5	0.081603326
44	0xbdd12730	-0.102125525
45	0xbb2edebf	-0.002668306
46	0xbe308b91	-0.1724074
47	0xbaf45fe4	-0.00186443
48	0xbe3c5795	-0.18392785
49	0x3da6c734	0.08143464
50	0xbcfa6251	-0.030564459
51	0x3d0f6175	0.03500505
52	0xbe6d6c55	-0.23185857
53	0xbeb7e000	-0.35913086
54	0xbe3a7155	-0.18207295
55	0xbc4d73bb	-0.012539799
56	0x3eab329b	0.33437046
57	0x3f0455e4	0.5169356
58	0x3e200e37	0.15630423
59	0x3ddc4902	0.10756113
60	0xbaa6071b	-0.0012666913
61	0xbde8b4f6	-0.113626406
62	0xbe899f86	-0.2687952
63	0xbe97b24e	-0.29628223
64	0xbd887991	-0.06663812
65	0xbe0ad065	-0.13556059
66	0xbe279108	-0.16363919
67	0xbe14866a	-0.145044
68	0xbe8b61ef	-0.27223155
69	0xbf009b63	-0.502371
70	0x3e0ffc09	0.14060988
71	0x3c0f3742	0.008741202
72	0xbcca16bc	-0.024669044
73	0x3e36bdc9	0.17845835
74	0xbddcc3a6	-0.107795045
75	0xbeb80ee6	-0.35948867
76	0xbe9f5023	-0.31115827
77	0x3e065b34	0.13120729
78	0x3e0230d6	0.12713942
79	0xbdb4d4c6	-0.08829646
80	0x3da5eaf3	0.08101454
81	0xbdf0e3e6	-0.11762218
82	0xbd685793	-0.056724142
83	0x3d68c70c	0.05683045
84	0x3d1ba241	0.037996534
85	0xbd1157da	-0.035484172
86	0x3f01e830	0.50744915
87	0x3e1159a7	0.14194356
88	0xbcfb644e	-0.030687477
89	0x3e3a4a72	0.18192461
90	0xbde2ab19	-0.110677905
91	0xbdaa2470	-0.08307731
92	0xbdbfb2c9	-0.093602724
93	0xbe4e550e	-0.20149633
94	0x3e4fdb7d	0.20298572
95	0x3d485913	0.048913073
96	0x3c06e6e6	0.008233761
97	0xbe4dadcb	-0.20085828
98	0xbd842e60	-0.06454158
99	0xbe3bbcc4	-0.18333727
100	0xbded6eb0	-0.115933776
101	0xbc6f13d3	-0.014592129
102	0x3eab0edf	0.33409783
103	0xbd355ee6	-0.044279955
104	0xbdf30a79	-0.11867232
105	0xbeb4c1fa	-0.35304242
106	0x3e63fb51	0.22263838
107	0x3dbe1d2f	0.0928291
108	0xbea6e313	-0.3259512
109	0x3e2adba8	0.16685355
110	0x3e58fdd0	0.21190572
111	0x3dcb5f35	0.09930269
112	0x3e97ec7c	0.2967261
113	0xbe8f18a6	-0.27948493
114	0xbe977a92	-0.295857
115	0xbf1aa9d4	-0.6041539
116	0xbd162f8e	-0.036666445
117	0xbe92ef70	-0.286983
118	0xbe688e19	-0.22710456
119	0x3e8e885a	0.27838403
120	0xbdffd6dd	-0.12492154
121	0xbe77036c	-0.24122399
122	0xbd0cfcd1	-0.034420792
123	0x3d6ef1b0	0.05833596
124	0xbd880849	-0.06642205
125	0x3e5808ae	0.21097061
126	0x3d4cf4f9	0.05003831
127	0xbea71308	-0.32631707
128	0xbcc6444b	-0.024202487
129	0x3d4af51a	0.049550153
130	0xbd02d93c	-0.031945452
131	0xbda93e7a	-0.082638696
132	0x3cfe58f9	0.031048285
133	0x3e7f8471	0.24952866
134	0xbccfc74f	-0.025363592
135	0xbdfb869c	-0.12281534
136	0xbc698872	-0.0142537225
137	0x3cc40b7f	0.023931263
138	0xbd835721	-0.06413103
139	0x3e1c226f	0.1524751
140	0xbdc0c698	-0.09412879
141	0x3cb83145	0.022484431
142	0xbe36e447	-0.17860518
143	0xbd68e8b2	-0.05686254
144	0x3ddeb38c	0.108740896
145	0xbd4a2626	-0.049352787
146	0xbbcae3ab	-0.006191691
147	0x3d1384db	0.036015373
148	0xbd3986ac	-0.04529445
149	0xbdc57958	-0.09642285
150	0x3d1ed5c6	0.03877809
151	0x3d5d9711	0.054099146
152	0x3d943e03	0.0723839
153	0x3d1cfbee	0.038326196
154	0x3d3962a1	0.045260075
155	0x3d0b23c4	0.033969656
156	0x3e30bc1a	0.17259255
157	0xbda35c66	-0.07976608
158	0x3ca9e29d	0.02073794
159	0xbc6ebf5a	-0.014571989
160	0x3d42b5ce	0.047536664
161	0x3d1a6926	0.037697934
162	0xbd4dafeb	-0.050216597
163	0xbe3994dd	-0.18123193
164	0x3e1e44b6	0.15455899
165	0xbda52919	-0.080644794
166	0xbe0fada3	-0.14031081
167	0x3e2539c6	0.1613532
168	0x3d260dac	0.040540382
169	0xbd236bfb	-0.0398979
170	0x3e2a90e5	0.16656835
171	0x3c5272ef	0.012844785
172	0x3d0afa8b	0.033930343
173	0xbd2229aa	-0.039590515
174	0x3dc6165c	0.096722335
175	0xbd4e6f2d	-0.050398994
176	0xbc18fb9e	-0.009337334
177	0xbd936dac	-0.071986526
178	0xbe80572e	-0.25066513
179	0x3d61392a	0.054986157
180	0x3e0d0ee9	0.13775219
181	0x3d9bdad6	0.07610099
182	0x3dea6d6d	0.114466526
183	0x3d8adca7	0.06780367
184	0x3d57957a	0.052632786
185	0xbd4c7070	-0.049911916
186	0xbe3d0737	-0.18459783
187	0x3d4a9fcf	0.04946881
188	0xbd3e1d80	-0.046414852
189	0x3d16539b	0.036700826
190	0x3cce2f8d	0.025169158
191	0xbd380957	-0.044930782
192	0x3c9314bc	0.017954223
193	0x3d697fd5	0.057006676
194	0xbcb9cb32	-0.022679899
195	0xbb39de75	-0.0028361354
196	0xbc1d0fa1	-0.009586246
197	0x3e0cb871	0.13742234
198	0xbd359de0	-0.044340014
199	0xbdbb22fb	-0.09137531
200	0x3dad5a0a	0.08464439
201	0xbcdaf29c	-0.026727013
202	0xbb8ffce0	-0.0043941587
203	0x3d6e51ca	0.05818347
204	0x3bb760c6	0.005596253
205	0x3c90a276	0.017655592
206	0x3bd72fd4	0.006566981
207	0xbd885051	-0.06655944
208	0x3ba10837	0.0049143094
209	0xbda6829b	-0.0813038
210	0x3dc995ba	0.09843011
211	0xbdb79cc9	-0.08965451
212	0x3c1b203c	0.0094681345
213	0x3d138bd4	0.036022022
214	0xbdd94869	-0.10609514
215	0x3d2cb7f0	0.042167604
216	0xbc23bbd6	-0.009993514
217	0xbdad72c0	-0.084691525
218	0xbca141a7	-0.019684626
219	0xbe0bad50	-0.13640332
220	0xbd75fcc1	-0.060055498
221	0xbc877da4	-0.016539402
222	0xbcc44734	-0.023959734
223	0xbc3e8e0e	-0.011630548
224	0x3d9538e5	0.072862424
225	0x3c1f546e	0.009724719
226	0x3d1f7bd7	0.038936462
227	0xbdb077d1	-0.08616603
228	0x3d056918	0.03257093
229	0x3d81fc2b	0.06346925
230	0x3c96694c	0.018360756
231	0xbdf1cd24	-0.118067056
232	0xbde72689	-0.11286647
233	0xbcb62c9d	-0.02223807
234	0xba735eb3	-0.00092838256
235	0x3d4f1ac7	0.050562646
236	0x3e691eda	0.22765675
237	0x3e4ecb88	0.20194829
238	0xbc291286	-0.010319358
239	0x3cf2ed20	0.029654086
240	0xbd1d4abd	-0.038401354
241	0xbcc89ecf	-0.024489788
242	0x3d0508ea	0.032479204
243	0xba48890e	-0.0007649817
244	0xbd3a1326	-0.045428418
245	0xbdb93f95	-0.090453304
246	0x3bd3d78e	0.006464905
247	0xbde4645a	-0.11151953
248	0x3cd96408	0.026536956
249	0x3cbbeb21	0.022939267
250	0xbcd305a5	-0.025759527
251	0x3e12fc76	0.14354119
252	0x3db5da97	0.08879583
253	0x3e1e3402	0.15449527
254	0xbcc126b1	-0.02357802
255	0x3d3f1bdc	0.04665743

lstm.bias_ih_l0 f4 [512]
0	0xbdb0708d	-0.08615217
1	0xbd72af52	-0.05924923
2	0xbe0fc333	-0.14039306
3	0xbe1aced0	-0.15117955
4	0x3cef8c99	0.029241847
5	0x3d647d5e	0.055783622
6	0xbe0883f7	-0.1333159
7	0xbce59f35	-0.028030017
8	0xbe1f2f4e	-0.15545389
9	0xbe072613	-0.13198118
10	0xbd969593	-0.07352748
11	0xbe04f36c	-0.12983483
12	0x3a0d2d1c	0.0005385445
13	0xbe512064	-0.20422512
14	0x3dee8b60	0.116476774
15	0xbd82287b	-0.06355377
16	0x3d364183	0.04449607
17	0xbe810b68	-0.25204015
18	0xbccb9864	-0.024852939
19	0xbe09e846	-0.13467512
20	0xbd79f99a	-0.061029054
21	0xbd8326e4	-0.06403902
22	0x3eb0fda0	0.345685
23	0xbddd5a0c	-0.10808191
24	0xbd826cb4	-0.0636839
25	0xbe2fcdb8	-0.17168319
26	0xbe14d5ae	-0.14534637
27	0xbe1c808b	-0.1528341
28	0xbdea36b9	-0.11436219
29	0xbdca6650	-0.09882796
30	0xbdadb5b2	-0.08481921
31	0xbdd1abcb	-0.10237845
32	0x3bf833d6	0.0075745387
33	0xbe04a798	-0.12954557
34	0xbd8ac3b9	-0.067756124
35	0xbd95ba06	-0.07310872
36	0x3d0b9824	0.03408064
37	0xbd2f475a	-0.042792656
38	0xbd6e5b7d	-0.05819272
39	0xbe16af09	-0.14715208
40	0xbd9dd722	-0.07707049
41	0xbcc2a87e	-0.023761984
42	0x3e542a7f	0.20719336
43	0xbe006512	-0.12538555
44	0xbe0afc3f	-0.13572787
45	0x3dea670c	0.11445436
46	0xbe13f335	-0.14448245
47	0xbddf1bd6	-0.10893981
48	0x3c1dca0a	0.009630689
49	0x3d201ae9	0.039088164
50	0xbdc214eb	-0.09476646
51	0x3d04b5a5	0.032399792
52	0xbdf01414	-0.117225796
53	0xbd16067e	-0.036627285
54	0xbe251a9c	-0.16123432
55	0xbd2619b4	-0.040551856
56	0xbe2bd210	-0.16779351
57	0xbd7831d8	-0.06059441
58	0xbda71b2f	-0.08159482
59	0xbd9e2f9f	-0.07723927
60	0xbe4d9e21	-0.20079853
61	0xbd19bad0	-0.037531674
62	0x3d4d6062	0.050140746
63	0xbcc1d709	-0.023662107
64	0xbdd2d008	-0.10293585
65	0xbd185c09	-0.037197147
66	0xbe261fc0	-0.16223049
67	0xbe4b70ad	-0.19867201
68	0xbd19d797	-0.037559118
69	0x3e2d424e	0.16919824
70	0x3bed0db1	0.007234298
71	0xbd9fbcdf	-0.07799696
72	0xbe1fe344	-0.15614039
73	0xbdb22553	-0.08698525
74	0xbe3648e4	-0.17801243
75	0xbd50798d	-0.05089717
76	0xbddc3cb3	-0.10753765
77	0xbd3a7da7	-0.045529988
78	0x3d9060cc	0.070497125
79	0xbdb73d5a	-0.08947249
80	0xbe16c846	-0.14724836
81	0xbd9185b8	-0.07105583
82	0xbe296300	-0.16541672
83	0x3e2385a7	0.15968953
84	0xbe3ff8b7	-0.18747221
85	0x3d3c4126	0.045960568
86	0xbb7bbbfb	-0.0038411606
87	0xbd292d69	-0.041303072
88	0xbd017d94	-0.0316139
89	0xbd8b092e	-0.0678886
90	0x3d77f713	0.060538363
91	0xbe683daf	-0.2267978
92	0xbe01962f	-0.12654947
93	0xbe050d54	-0.12993366
94	0xbe00eb0b	-0.12589662
95	0xbdc9fdf4	-0.09862891
96	0xbd5a621b	-0.053316217
97	0xbdcc0856	-0.099625275
98	0xbe540688	-0.20705616
99	0xbe2718b0	-0.16318011
100	0xbe144b17	-0.1448177
101	0xbe1dc37a	-0.154066
102	0xbbd89445	-0.006609472
103	0xbd0f857a	-0.035039403
104	0x3d54a072	0.051910825
105	0x3b99646c	0.0046811607
106	0xbe2c29d6	-0.16812834
107	0xbdafa14b	-0.08575686
108	0x3e048e00	0.12944794
109	0xbc24a50a	-0.010049114
110	0xbe1611b6	-0.14655194
111	0xba68cbbd	-0.0008880457
112	0xbd4e4d1f	-0.050366517
113	0x3cd19168	0.02558203
114	0xbc18c676	-0.0093246605
115	0x3dab973a	0.083784536
116	0xbe40cedd	-0.18828912
117	0xbd10857d	-0.035283554
118	0xbde3bf9f	-0.11120533
119	0xbd2199da	-0.039453365
120	0x3bafd9cc	0.0053665396
121	0xbdc20bed	-0.09474931
122	0xbde0f64e	-0.10984479
123	0xbe376681	-0.17910196
124	0xbe037b64	-0.12840039
125	0xbd2fb8cd	-0.04290085
126	0xbe179d0e	-0.14806005
127	0xbd924a2e	-0.07143055
128	0xbd617faf	-0.05505341
129	0xbe4a579f	-0.19759987
130	0xbe2c2a9e	-0.16813132
131	0xbe08fe40	-0.13378239
132	0xbdc6bac5	-0.09703592
133	0x3dbe973f	0.09306192
134	0xbe52c4cf	-0.20582889
135	0xbe65615e	-0.22400424
136	0xbe81d170	-0.253551
137	0xbdab5f22	-0.083677545
138	0xbb095811	-0.0020957033
139	0xbe556562	-0.20839456
140	0xbe292831	-0.16519238
141	0xbe020f09	-0.12701048
142	0x3dc31b43	0.09526684
143	0xbd99f4bf	-0.07517385
144	0xbe12e344	-0.14344507
145	0xbe609d99	-0.21935119
146	0xbd499c96	-0.049221598
147	0xbebe5ae1	-0.3717871
148	0xbdca41f0	-0.09875858
149	0xbe2bfcba	-0.16795626
150	0xbe9b9660	-0.30388165
151	0xbdebedef	-0.115199916
152	0xbe0416c8	-0.12899315
153	0xbdf4032a	-0.11914666
154	0xbe55738b	-0.20844857
155	0xbdafc1b9	-0.085818715
156	0xbcb6d2c6	-0.022317301
157	0xbe04b9b0	-0.12961459
158	0xbe423495	-0.18965371
159	0xbdc36438	-0.095405996
160	0xbd8c9d10	-0.06865895
161	0xbdc85d4e	-0.097834215
162	0xbe27b371	-0.16377045
163	0xbe4b9704	-0.19881827
164	0x37bf3b08	2.2796463e-05
165	0xbd6a27e1	-0.057166938
166	0xbde4a0a1	-0.1116345
167	0xbe530d4d	-0.20610543
168	0xbe144a9a	-0.14481583
169	0xbe0d2f96	-0.13787684
170	0xbe1c6a6b	-0.1527497
171	0xbe08928c	-0.13337153
172	0xbe301999	-0.17197265
173	0xbd1d9123	-0.03846849
174	0xbdcf304f	-0.10116636
175	0xbe13e9c2	-0.1444464
176	0xbe6b6a79	-0.22989835
177	0xbe537a21	-0.20652057
178	0xbded7f20	-0.11596513
179	0xbe1fb223	-0.15595298
180	0xbd9b86fa	-0.07594104
181	0x3e32307a	0.17401305
182	0xbe6022a4	-0.21888214
183	0xbe2b3d93	-0.16722707
184	0xbe91d9e6	-0.28486556
185	0x3d419c8e	0.047268443
186	0xbdedde7e	-0.11614703
187	0xbe270621	-0.16310932
188	0xbd289097	-0.041153517
189	0xbdba90ca	-0.091096476
190	0xbdfd2c11	-0.123619206
191	0xbe22c597	-0.15895687
192	0xbd36a19c	-0.044587716
193	0xbe689fde	-0.22717234
194	0xbe018661	-0.12648918
195	0xbe10d860	-0.1414504
196	0xbe8788c6	-0.26471537
197	0xbdeb6a32	-0.114948645
198	0xbe470fe5	-0.19439657
199	0xbe2e758c	-0.17037028
200	0xbe621dcd	-0.2208168
201	0xbe8da898	-0.2766769
202	0xbe0a5109	-0.13507475
203	0xbd829cbb	-0.0637755
204	0xbe43fe26	-0.19139919
205	0xbe280be4	-0.16410786
206	0xbe5aa8bd	-0.21353431
207	0xbe55259b	-0.20815127
208	0xbe3640d5	-0.17798169
209	0xbe88d8b4	-0.2672783
210	0xbe5712ee	-0.21003315
211	0xbe247e84	-0.16063887
212	0xbe1e6354	-0.15467578
213	0xbe144090	-0.14477754
214	0xbda90c4e	-0.082543
215	0xbe8215da	-0.25407296
216	0xbe2c4a8b	-0.16825311
217	0xbdf29f5c	-0.11846802
218	0xbe39cfb7	-0.18145643
219	0xbe238517	-0.15968738
220	0xbdaa4f5b	-0.08315917
221	0xbe237c54	-0.15965396
222	0xbdb2e0d7	-0.08734291
223	0xbe0b8fb3	-0.13629036
224	0xbe0f6bfb	-0.14006035
225	0xbe49a35f	-0.19691227
226	0xbe909650	-0.2823968
227	0xbe30acf8	-0.17253482
228	0xbe5bf5c6	-0.21480474
229	0xbe420bed	-0.18949862
230	0xbe2c0d77	-0.16802011
231	0xbd93abe5	-0.07210521
232	0xbe744d2d	-0.23857565
233	0xbe4cae27	-0.19988309
234	0xbe42deb7	-0.19030271
235	0xbd79a51e	-0.060948484
236	0xbe0ebafa	-0.13938513
237	0x3d11e58e	0.03561931
238	0xbe07f64f	-0.13277553
239	0xbe437f9f	-0.19091652
240	0xbe700bba	-0.23441973
241	0xbe3113ad	-0.17292662
242	0xbea960b0	-0.3308158
243	0xbdf9f860	-0.12205577
244	0xbe0365ac	-0.12831753
245	0xbe40547b	-0.18782227
246	0xbe4a2d42	-0.19743827
247	0xbda08150	-0.078371644
248	0xbdc9e95c	-0.09858963
249	0xbdc5ffd1	-0.09667934
250	0xbe1c6677	-0.15273462
251	0xbd7bb5c2	-0.061452635
252	0xbe17eef3	-0.14837246
253	0xbdc3e6b6	-0.09565489
254	0xbe46a432	-0.19398573
255	0xbd94dc58	-0.0726859

lstm.bias_hh_l0 f4 [512]
0	0xbdb0708d	-0.08615217
1	0xbd72af52	-0.05924923
2	0xbe0fc333	-0.14039306
3	0xbe1aced0	-0.15117955
4	0x3cef8c99	0.029241847
5	0x3d647d5e	0.055783622
6	0xbe0883f7	-0.1333159
7	0xbce59f35	-0.028030017
8	0xbe1f2f4e	-0.15545389
9	0xbe072613	-0.13198118
10	0xbd969593	-0.07352748
11	0xbe04f36c	-0.12983483
12	0x3a0d2d1c	0.0005385445
13	0xbe512064	-0.20422512
14	0x3dee8b60	0.116476774
15	0xbd82287b	-0.06355377
16	0x3d364183	0.04449607
17	0xbe810b68	-0.25204015
18	0xbccb9864	-0.024852939
19	0xbe09e846	-0.13467512
20	0xbd79f99a	-0.061029054
21	0xbd8326e4	-0.06403902
22	0x3eb0fda0	0.345685
23	0xbddd5a0c	-0.10808191
24	0xbd826cb4	-0.0636839
25	0xbe2fcdb8	-0.17168319
26	0xbe14d5ae	-0.14534637
27	0xbe1c808b	-0.1528341
28	0xbdea36b9	-0.11436219
29	0xbdca6650	-0.09882796
30	0xbdadb5b2	-0.08481921
31	0xbdd1abcb	-0.10237845
32	0x3bf833d6	0.0075745387
33	0xbe04a798	-0.12954557
34	0xbd8ac3b9	-0.067756124
35	0xbd95ba06	-0.07310872
36	0x3d0b9824	0.03408064
37	0xbd2f475a	-0.042792656
38	0xbd6e5b7d	-0.05819272
39	0xbe16af09	-0.14715208
40	0xbd9dd722	-0.07707049
41	0xbcc2a87e	-0.023761984
42	0x3e542a7f	0.20719336
43	0xbe006512	-0.12538555
44	0xbe0afc3f	-0.13572787
45	0x3dea670c	0.11445436
46	0xbe13f335	-0.14448245
47	0xbddf1bd6	-0.10893981
48	0x3c1dca0a	0.009630689
49	0x3d201ae9	0.039088164
50	0xbdc214eb	-0.09476646
51	0x3d04b5a5	0.032399792
52	0xbdf01414	-0.117225796
53	0xbd16067e	-0.036627285
54	0xbe251a9c	-0.16123432
55	0xbd2619b4	-0.040551856
56	0xbe2bd210	-0.16779351
57	0xbd7831d8	-0.06059441
58	0xbda71b2f	-0.08159482
59	0xbd9e2f9f	-0.07723927
60	0xbe4d9e21	-0.20079853
61	0xbd19bad0	-0.037531674
62	0x3d4d6062	0.050140746
63	0xbcc1d709	-0.023662107
64	0xbdd2d008	-0.10293585
65	0xbd185c09	-0.037197147
66	0xbe261fc0	-0.16223049
67	0xbe4b70ad	-0.19867201
68	0xbd19d797	-0.037559118
69	0x3e2d424e	0.16919824
70	0x3bed0db1	0.007234298
71	0xbd9fbcdf	-0.07799696
72	0xbe1fe344	-0.15614039
73	0xbdb22553	-0.08698525
74	0xbe3648e4	-0.17801243
75	0xbd50798d	-0.05089717
76	0xbddc3cb3	-0.10753765
77	0xbd3a7da7	-0.045529988
78	0x3d9060cc	0.070497125
79	0xbdb73d5a	-0.08947249
80	0xbe16c846	-0.14724836
81	0xbd9185b8	-0.07105583
82	0xbe296300	-0.16541672
83	0x3e2385a7	0.15968953
84	0xbe3ff8b7	-0.18747221
85	0x3d3c4126	0.045960568
86	0xbb7bbbfb	-0.0038411606
87	0xbd292d69	-0.041303072
88	0xbd017d94	-0.0316139
89	0xbd8b092e	-0.0678886
90	0x3d77f713	0.060538363
91	0xbe683daf	-0.2267978
92	0xbe01962f	-0.12654947
93	0xbe050d54	-0.12993366
94	0xbe00eb0b	-0.12589662
95	0xbdc9fdf4	-0.09862891
96	0xbd5a621b	-0.053316217
97	0xbdcc0856	-0.099625275
98	0xbe540688	-0.20705616
99	0xbe2718b0	-0.16318011
100	0xbe144b17	-0.1448177
101	0xbe1dc37a	-0.154066
102	0xbbd89445	-0.006609472
103	0xbd0f857a	-0.035039403
104	0x3d54a072	0.051910825
105	0x3b99646c	0.0046811607
106	0xbe2c29d6	-0.16812834
107	0xbdafa14b	-0.08575686
108	0x3e048e00	0.12944794
109	0xbc24a50a	-0.010049114
110	0xbe1611b6	-0.14655194
111	0xba68cbbd	-0.0008880457
112	0xbd4e4d1f	-0.050366517
113	0x3cd19168	0.02558203
114	0xbc18c676	-0.0093246605
115	0x3dab973a	0.083784536
116	0xbe40cedd	-0.18828912
117	0xbd10857d	-0.035283554
118	0xbde3bf9f	-0.11120533
119	0xbd2199da	-0.039453365
120	0x3bafd9cc	0.0053665396
121	0xbdc20bed	-0.09474931
122	0xbde0f64e	-0.10984479
123	0xbe376681	-0.17910196
124	0xbe037b64	-0.12840039
125	0xbd2fb8cd	-0.04290085
126	0xbe179d0e	-0.14806005
127	0xbd924a2e	-0.07143055
128	0xbd617faf	-0.05505341
129	0xbe4a579f	-0.19759987
130	0xbe2c2a9e	-0.16813132
131	0xbe08fe40	-0.13378239
132	0xbdc6bac5	-0.09703592
133	0x3dbe973f	0.09306192
134	0xbe52c4cf	-0.20582889
135	0xbe65615e	-0.22400424
136	0xbe81d170	-0.253551
137	0xbdab5f22	-0.083677545
138	0xbb095811	-0.0020957033
139	0xbe556562	-0.20839456
140	0xbe292831	-0.16519238
141	0xbe020f09	-0.12701048
142	0x3dc31b43	0.09526684
143	0xbd99f4bf	-0.07517385
144	0xbe12e344	-0.14344507
145	0xbe609d99	-0.21935119
146	0xbd499c96	-0.049221598
147	0xbebe5ae1	-0.3717871
148	0xbdca41f0	-0.09875858
149	0xbe2bfcba	-0.16795626
150	0xbe9b9660	-0.30388165
151	0xbdebedef	-0.115199916
152	0xbe0416c8	-0.12899315
153	0xbdf4032a	-0.11914666
154	0xbe55738b	-0.20844857
155	0xbdafc1b9	-0.085818715
156	0xbcb6d2c6	-0.022317301
157	0xbe04b9b0	-0.12961459
158	0xbe423495	-0.18965371
159	0xbdc36438	-0.095405996
160	0xbd8c9d10	-0.06865895
161	0xbdc85d4e	-0.097834215
162	0xbe27b371	-0.16377045
163	0xbe4b9704	-0.19881827
164	0x37bf3b08	2.2796463e-05
165	0xbd6a27e1	-0.057166938
166	0xbde4a0a1	-0.1116345
167	0xbe530d4d	-0.20610543
168	0xbe144a9a	-0.14481583
169	0xbe0d2f96	-0.13787684
170	0xbe1c6a6b	-0.1527497
171	0xbe08928c	-0.13337153
172	0xbe301999	-0.17197265
173	0xbd1d9123	-0.03846849
174	0xbdcf304f	-0.10116636
175	0xbe13e9c2	-0.1444464
176	0xbe6b6a79	-0.22989835
177	0xbe537a21	-0.20652057
178	0xbded7f20	-0.11596513
179	0xbe1fb223	-0.15595298
180	0xbd9b86fa	-0.07594104
181	0x3e32307a	0.17401305
182	0xbe6022a4	-0.21888214
183	0xbe2b3d93	-0.16722707
184	0xbe91d9e6	-0.28486556
185	0x3d419c8e	0.047268443
186	0xbdedde7e	-0.11614703
187	0xbe270621	-0.16310932
188	0xbd289097	-0.041153517
189	0xbdba90ca	-0.091096476
190	0xbdfd2c11	-0.123619206
191	0xbe22c597	-0.15895687
192	0xbd36a19c	-0.044587716
193	0xbe689fde	-0.22717234
194	0xbe018661	-0.12648918
195	0xbe10d860	-0.1414504
196	0xbe8788c6	-0.26471537
197	0xbdeb6a32	-0.114948645
198	0xbe470fe5	-0.19439657
199	0xbe2e758c	-0.17037028
200	0xbe621dcd	-0.2208168
201	0xbe8da898	-0.2766769
202	0xbe0a5109	-0.13507475
203	0xbd829cbb	-0.0637755
204	0xbe43fe26	-0.19139919
205	0xbe280be4	-0.16410786
206	0xbe5aa8bd	-0.21353431
207	0xbe55259b	-0.20815127
208	0xbe3640d5	-0.17798169
209	0xbe88d8b4	-0.2672783
210	0xbe5712ee	-0.21003315
211	0xbe247e84	-0.16063887
212	0xbe1e6354	-0.15467578
213	0xbe144090	-0.14477754
214	0xbda90c4e	-0.082543
215	0xbe8215da	-0.25407296
216	0xbe2c4a8b	-0.16825311
217	0xbdf29f5c	-0.11846802
218	0xbe39cfb7	-0.18145643
219	0xbe238517	-0.15968738
220	0xbdaa4f5b	-0.08315917
221	0xbe237c54	-0.15965396
222	0xbdb2e0d7	-0.08734291
223	0xbe0b8fb3	-0.13629036
224	0xbe0f6bfb	-0.14006035
225	0xbe49a35f	-0.19691227
226	0xbe909650	-0.2823968
227	0xbe30acf8	-0.17253482
228	0xbe5bf5c6	-0.21480474
229	0xbe420bed	-0.18949862
230	0xbe2c0d77	-0.16802011
231	0xbd93abe5	-0.07210521
232	0xbe744d2d	-0.23857565
233	0xbe4cae27	-0.19988309
234	0xbe42deb7	-0.19030271
235	0xbd79a51e	-0.060948484
236	0xbe0ebafa	-0.13938513
237	0x3d11e58e	0.03561931
238	0xbe07f64f	-0.13277553
239	0xbe437f9f	-0.19091652
240	0xbe700bba	-0.23441973
241	0xbe3113ad	-0.17292662
242	0xbea960b0	-0.3308158
243	0xbdf9f860	-0.12205577
244	0xbe0365ac	-0.12831753
245	0xbe40547b	-0.18782227
246	0xbe4a2d42	-0.19743827
247	0xbda08150	-0.078371644
248	0xbdc9e95c	-0.09858963
249	0xbdc5ffd1	-0.09667934
250	0xbe1c6677	-0.15273462
251	0xbd7bb5c2	-0.061452635
252	0xbe17eef3	-0.14837246
253	0xbdc3e6b6	-0.09565489
254	0xbe46a432	-0.19398573
255	0xbd94dc58	-0.0726859

lstm.weight_ih_l1 f4 [512, 128]
0	0xbde57444	-0.112038165
1	0xbddc5f48	-0.10760361
2	0xbde01643	-0.10941746
3	0xbd6f6eca	-0.058455266
4	0x3d485724	0.04891123
5	0xbe4d169d	-0.20028158
6	0xbe2d97c8	-0.16952431
7	0xbdfa1683	-0.12211325
8	0x3c9b10c6	0.018928897
9	0x3e5e264e	0.216943
10	0x3d628865	0.055305857
11	0xbcf815e1	-0.03028387
12	0xbceba516	-0.028765243
13	0x3e236cfd	0.15959544
14	0xbed72917	-0.42023537
15	0x3e1bc2c9	0.15211023
16	0xbd0e3010	-0.034713805
17	0x3c07c4a4	0.008286629
18	0xbdb0026e	-0.085942134
19	0xbd5edc08	-0.054409057
20	0x3dad7a57	0.084706
21	0x3df2fe84	0.11864951
22	0x3e47bc2a	0.19505373
23	0xbdd96580	-0.10615063
24	0xbd2a91c2	-0.04164291
25	0xbca2c1be	-0.019867774
26	0xbd8ec21e	-0.06970619
27	0xbd5ae78a	-0.05344347
28	0x3e924cb1	0.28574136
29	0xbd86657b	-0.065623246
30	0x3d502508	0.050816566
31	0x3e21caac	0.1579997
32	0xbcb0ab04	-0.021565922
33	0x3d0bf3d0	0.034168065
34	0x3d0139fc	0.03154944
35	0x3bc4c75b	0.0060052103
36	0xbdb9094a	-0.09034975
37	0x3c716945	0.014734571
38	0xbce4d5b1	-0.027933927
39	0xbd8d9586	-0.06913285
40	0xbc5e47d4	-0.01356693
41	0x3df54faf	0.11978089
42	0x3ba7782b	0.0051107607
43	0x3e21091d	0.15726133
44	0xbe125868	-0.14291537
45	0xbcddebf6	-0.027090054
46	0x3d856f80	0.065154076
47	0x3d4a6162	0.049409278
48	0x3d3fa7c4	0.046790853
49	0x3dbd97fd	0.09257505
50	0xbd81ead5	-0.06343619
51	0x3dab717b	0.08371254
52	0x3dfa2285	0.12213615
53	0xbe6b507a	-0.22979918
54	0x3e86f27b	0.26356873
55	0x3d8d64a2	0.0690396
56	0xbe68af93	-0.22723226
57	0xbcab0d2a	-0.0208803
58	0xbe59d40f	-0.212723
59	0xbe0efe9d	-0.13964315
60	0xbc37f2fe	-0.011227367
61	0x3daed6be	0.085370526
62	0x3e0b373c	0.13595289
63	0x3c5163aa	0.012780109
64	0x3db66c98	0.08907431
65	0x3e40634f	0.18787883
66	0x3cfb7d3e	0.030699369
67	0xbd8ec8a3	-0.06971862
68	0x3df21e3f	0.11822175
69	0x3e7a15d8	0.24422395
70	0xbe0de053	-0.13855104
71	0xba30cc41	-0.00067443034
72	0xbe09cb6e	-0.13456509
73	0x3c51fabc	0.012816127
74	0xbdaf7bbb	-0.085685216
75	0xbde402af	-0.11133324
76	0x3d135623	0.03597082
77	0x3db2e500	0.087350845
78	0x3d26ae05	0.0406933
79	0x3dc10eeb	0.094266735
80	0xbc14910f	-0.009067788
81	0xbd73404f	-0.0593875
82	0xbe03af0a	-0.12859741
83	0x3d05f5f2	0.032705255
84	0xbccbcf1b	-0.024879029
85	0x3c611ce6	0.0137398
86	0x3e9da6cd	0.3079132
87	0x3e125961	0.14291908
88	0xbe23903b	-0.15972988
89	0x3e3d1a67	0.18467103
90	0x3dfa7492	0.12229265
91	0x3c412ed6	0.011790952
92	0x3be67895	0.0070334175
93	0xbd254a24	-0.04035391
94	0x3e318712	0.17336681
95	0x3cfcc233	0.03085432
96	0xbd0bfd67	-0.03417721
97	0xbcbccc15	-0.023046533
98	0xbe450423	-0.1923986
99	0x3da76b7d	0.08174799
100	0x3d8d8e5d	0.06911919
101	0x3e4ffa79	0.20310391
102	0xbe667144	-0.22504145
103	0x3ddebaf0	0.10875499
104	0x3e2088bc	0.1567716
105	0x3d61b393	0.055102896
106	0x3cad14ec	0.02112814
107	0x3d69d50f	0.057087954
108	0x3d7e29a7	0.06205144
109	0xbe64c024	-0.22338921
110	0x3d541fec	0.051788256
111	0xbc6590a3	-0.014011535
112	0xbc6f8a3b	-0.014620359
113	0x3c83b67f	0.016078232
114	0xbd228b18	-0.03968343
115	0x3da22106	0.07916455
116	0x3d8e1767	0.069380574
117	0xbdbae667	-0.09125977
118	0xbe027542	-0.12740043
119	0xbbb58126	-0.0055390773
120	0x3e1535ae	0.14571258
121	0xbc471942	-0.012152018
122	0xbb74a9e6	-0.0037332713
123	0x3d923c89	0.071404524
124	0x3e072521	0.13197757
125	0xbe09f77f	-0.13473319
126	0xbcaffeeb	-0.021483859
127	0xbc84ace0	-0.016195714
128	0xbe2df835	-0.16989215
129	0xbda71dc4	-0.08159974
130	0xbcf94770	-0.030429572
131	0xbb65d4eb	-0.0035069536
132	0xbbee4f8f	-0.0072726677
133	0xbe2293c1	-0.15876676
134	0xbd465676	-0.0484223
135	0xbe335866	-0.1751419
136	0x3e2790c4	0.16363817
137	0x3de21c0e	0.11040507
138	0x3c8540fa	0.016266335
139	0x3d126382	0.03573943
140	0x3ba2e9f3	0.0049717366
141	0x3e048364	0.12940747
142	0xbe0d2c57	-0.13786446
143	0x3de2f1bd	0.11081264
144	0x3da4e717	0.080518894
145	0x3d618c9c	0.055065736
146	0x3c16fb8a	0.009215245
147	0x3c94032b	0.018067917
148	0x3dc0ea96	0.09419744
149	0xbb8f1682	-0.004366697
150	0x3e3d680e	0.18496725
151	0x3d9c094a	0.07618959
152	0xbe132dcd	-0.1437294
153	0xbe205881	-0.15658762
154	0xbda15298	-0.07877082
155	0x3d638c04	0.05555345
156	0x3e307258	0.17231119
157	0xbc2959ed	-0.010336381
158	0xbda5ae67	-0.08089905
159	0x3d6ab3a8	0.05730024
160	0xbdd3ba59	-0.10338277
161	0xbdf4905d	-0.119415976
162	0x3de35116	0.1109945
163	0xbb85598b	-0.0040695122
164	0x3bee1c2b	0.0072665415
165	0x3d93a3bd	0.07208965
166	0x3de8e34e	0.1137148
167	0xbdf04b56	-0.11733119
168	0x3be028dc	0.0068408083
169	0x3e008ca3	0.12553649
170	0x3c3d3453	0.01154812
171	0x3c169527	0.009190834
172	0x3dbc73d9	0.09201784
173	0xbbd9d4d9	-0.006647688
174	0xbda6574b	-0.081221186
175	0xbbfa976e	-0.0076474464
176	0x3c9a1c21	0.018812241
177	0x3d65951e	0.056050412
178	0xbd59a259	-0.053133342
179	0x3daee561	0.08539844
180	0x3d527730	0.051383197
181	0xbe1733da	-0.14765874
182	0x3dde5975	0.10856906
183	0xbd8821b0	-0.066470504
184	0xbdce8d5b	-0.10085555
185	0x3d232e37	0.039838996
186	0xbe5864a3	-0.2113214
187	0xbdd73c79	-0.10509581
188	0xbd41c0b9	-0.047302935
189	0x3d59b396	0.053149782
190	0x3d1ffe7f	0.039061066
191	0x3b948c0b	0.004533296
192	0xbd821f70	-0.063536525
193	0x3e10ddaf	0.14147066
194	0x3cca17a6	0.02466948
195	0xbdda31e0	-0.10654044
196	0x3deb8da3	0.115016244
197	0x3e376f6b	0.17913596
198	0xbde0fe65	-0.10986022
199	0x3dc36a64	0.09541777
200	0xbe116b26	-0.1420103
201	0xbd461a50	-0.048364937
202	0x3e05cfa0	0.13067484
203	0x3bfb69bb	0.007672516
204	0x3e17c2db	0.14820425
205	0xbe05b1fa	-0.13056174
206	0xbb3cb2e2	-0.0028793146
207	0x3e10786a	0.14108434
208	0xbd27153f	-0.040791746
209	0x3cc59b89	0.024122017
210	0xbd41aeb4	-0.04728575
211	0x3e297d61	0.16551735
212	0xbc915e5c	-0.01774519
213	0xbd3a3a35	-0.045465667
214	0x3d54dc01	0.051967625
215	0x3d44c107	0.048035648
216	0xbe219f17	-0.15783344
217	0x3e448de1	0.19194748
218	0x3dfdd58a	0.12394245
219	0x3d242c81	0.040081505
220	0xbbbc13b5	-0.005739654
221	0x3d388ad1	0.04505426
222	0x3d285fdc	0.041107044
223	0x3e54ed8d	0.20793743
224	0xbcc98b6c	-0.024602614
225	0xbceb3d71	-0.028715821
226	0xbd80c56d	-0.06287656
227	0x3cb957e3	0.022624915
228	0x3e1a5fee	0.15075657
229	0x3de5f6c8	0.112287104
230	0x3db43e95	0.08800999
231	0x3e71500c	0.23565692
232	0xbc8814f1	-0.016611548
233	0x3d9a54be	0.075356945
234	0xbe23a302	-0.15980151
235	0xbceca80e	-0.028888728
236	0xbc03888a	-0.008028159
237	0xbc81b7dd	-0.015834743
238	0xbc16b1ba	-0.009197647
239	0xbcf26691	-0.029589923
240	0x3d986e03	0.07442858
241	0xbb9c78c6	-0.0047751395
242	0xbdcf4929	-0.10121376
243	0x3d7022e9	0.058627043
244	0x3dc7bcf0	0.09752834
245	0x3d04893a	0.032357432
246	0xbbdaad8b	-0.00667352
247	0xbd83136b	-0.06400188
248	0x3d9e7305	0.07736782
249	0xbe20052c	-0.15626973
250	0x3d4fe2d5	0.050753433
251	0xbdaf9ce5	-0.08574847
252	0x3e2edd43	0.17076592
253	0x3a9f8757	0.0012171072
254	0x3c7f2791	0.015573398
255	0x3d5b5b94	0.053554133

lstm.weight_hh_l1 f4 [512, 128]
0	0x3e456980	0.19278526
1	0x3daf467a	0.08558364
2	0xbca7f772	-0.020503733
3	0x3caf798d	0.021420265
4	0x3c8f0fbc	0.017463557
5	0xbca2d6c4	-0.019877799
6	0x3cff202e	0.031143274
7	0xbda347c6	-0.07972674
8	0x3d018134	0.03161736
9	0x3da8fa3a	0.08250852
10	0xbb7ede5b	-0.0038889858
11	0x3de5fc04	0.11229709
12	0xbddcf663	-0.10789182
13	0x3dcf9489	0.10135753
14	0xbb7f19c9	-0.0038925281
15	0x3db1bbab	0.08678373
16	0xbe127328	-0.14301741
17	0xbd199c01	-0.037502293
18	0xbd8efca1	-0.06981779
19	0xbd52fe25	-0.051511902
20	0xbd989996	-0.07451169
21	0x3c39a563	0.011330935
22	0xbc46de20	-0.01213792
23	0xbb4a8b97	-0.0030905956
24	0x3c12a5cf	0.008950665
25	0xbe39d1a7	-0.18146382
26	0x37dce5ec	2.633311e-05
27	0x3c96b15e	0.018395122
28	0x3d86d47e	0.065834984
29	0x3c4f85f4	0.012666214
30	0x3d9b5acf	0.0758568
31	0xbc16c588	-0.009202369
32	0xbd480520	-0.048833013
33	0xbd989cf0	-0.074518085
34	0xbd075c04	-0.033046737
35	0xbc8584e9	-0.016298728
36	0xbdbf3ce4	-0.09337786
37	0x3cf27b49	0.029599803
38	0x3d008a0a	0.031381644
39	0x3db05abf	0.086110584
40	0xbdb9918d	-0.09060965
41	0x3d179033	0.037002753
42	0x3d8d7b48	0.0690828
43	0xbd95f37a	-0.0732183
44	0x3df17153	0.11789193
45	0x3dabf6d8	0.08396691
46	0xbcaed0b9	-0.021339761
47	0x3dd76ff6	0.10519402
48	0xbd09b7ad	-0.033622433
49	0x3d4d83c0	0.050174475
50	0xbda5b85b	-0.08091804
51	0x3d3f9085	0.046768684
52	0x3d9ef22b	0.077610336
53	0xbe0ad5e1	-0.13558151
54	0xbd8b74c3	-0.0680938
55	0xbd33ecb8	-0.043926924
56	0xbbff2f3f	-0.0077876146
57	0xbe258689	-0.16164602
58	0x3d45b655	0.04826959
59	0x3c568fc1	0.013095797
60	0x3b79176b	0.0038008343
61	0xbdaa7c9a	-0.08324547
62	0x3d5b36ed	0.05351918
63	0x3d76c06a	0.060242094
64	0xbd365157	-0.044511165
65	0xbe006e34	-0.12542039
66	0x3d4bb6f0	0.04973501
67	0xbdeb6f83	-0.114958785
68	0xbd34cac4	-0.044138685
69	0xbc7a0cc9	-0.015261837
70	0x3defb469	0.117043324
71	0xbcb48eef	-0.022040812
72	0x3e28a3cd	0.16468735
73	0x3c08eba1	0.00835696
74	0xbbb92f4a	-0.0056513892
75	0xbdfec751	-0.1244036
76	0xbd50d508	-0.050984412
77	0x3d98cc55	0.07460848
78	0xbd573ba5	-0.052547116
79	0xbdce2f13	-0.100675724
80	0x3d021746	0.031760477
81	0xbd27b3e6	-0.04094305
82	0xba341cd0	-0.00068707485
83	0xbdab3545	-0.0835977
84	0xbe60f20e	-0.21967337
85	0xbda592d9	-0.080846496
86	0xb9e5d4ab	-0.00043836734
87	0x3d70f3c1	0.05882621
88	0x3d95f2e6	0.0732172
89	0x3cff9b0b	0.03120186
90	0xbc514aca	-0.012774179
91	0x3ca96584	0.02067829
92	0x3a9ad03a	0.0011811324
93	0xbd45a141	-0.048249487
94	0xbda5f09c	-0.08102533
95	0x3d27d3ef	0.0409736
96	0x3b8c9fc3	0.004291506
97	0xbc45b475	-0.01206695
98	0x3e241d76	0.16026863
99	0xbc45c9ea	-0.012072066
100	0x3cac6599	0.02104454
101	0x3d8f3459	0.069924064
102	0x3e089987	0.13339816
103	0xbc97860f	-0.018496541
104	0x3da67d0e	0.08129321
105	0x3d486297	0.048922148
106	0x3d16b3f4	0.03679271
107	0x3ca2a7fe	0.019855496
108	0xbd89a901	-0.06721688
109	0xbe07e777	-0.1327189
110	0x3db449a9	0.08803112
111	0x3d50a9b2	0.050943084
112	0xbcf65471	-0.030069562
113	0x3da2cddf	0.07949423
114	0xbdac7a34	-0.08421746
115	0xbdc046e2	-0.0938852
116	0xbd6a3f21	-0.05718911
117	0x3d7a5760	0.061118484
118	0x3d0dbc9a	0.034603693
119	0xbd1e3cd5	-0.038632233
120	0xbdc65971	-0.09685028
121	0xbc9c1b24	-0.01905591
122	0xbd82309c	-0.06356928
123	0xbd492f4f	-0.049117383
124	0xbd6d6a6b	-0.057962816
125	0x3dddb546	0.10825591
126	0x3be09029	0.0068531227
127	0xbd5cefb6	-0.053939544
128	0xbce0753a	-0.027399648
129	0xbbd4f040	-0.0064983666
130	0xbc90ccba	-0.017675746
131	0x3cdb7b6a	0.026792247
132	0x3e0aa5cd	0.1353981
133	0xbc5f0254	-0.013611395
134	0x3d8a9664	0.06766966
135	0xbdbd6d5d	-0.09249375
136	0x3d468ec3	0.048475992
137	0x3dba58c2	0.090989605
138	0xbbabbf1d	-0.0052412883
139	0x3ba1b8e2	0.00493537
140	0xbdc435f4	-0.09580603
141	0x3d9378dd	0.07200787
142	0xbd38e38e	-0.045138888
143	0xbd54087b	-0.0517659
144	0x3d33b5b4	0.043874457
145	0x3d1a9a1d	0.03774463
146	0xbdadd87c	-0.08488557
147	0x3cf5c7dc	0.030002527
148	0xbde20c22	-0.110374704
149	0xbd4bc78e	-0.049750857
150	0xbc3cb8be	-0.011518655
151	0xbbff8e64	-0.0077989567
152	0xbcf71704	-0.030162342
153	0xbdbc42d0	-0.09192431
154	0xbc99d6ca	-0.018779177
155	0x3d9148a3	0.070939325
156	0x3db86cfa	0.09005161
157	0xbd6029e4	-0.05472745
158	0x3da0c917	0.07850855
159	0xbde0c5da	-0.10975237
160	0x3d0a26b6	0.033728324
161	0xbd2c57d2	-0.04207594
162	0xbc543908	-0.01295305
163	0x3c69613c	0.014244374
164	0xbd45e0d9	-0.048310135
165	0xbd893409	-0.06699378
166	0x3d7168f0	0.058937967
167	0x3df55e55	0.11980883
168	0xbe0e0016	-0.1386722
169	0xbdbb4692	-0.091443196
170	0xbc0923c8	-0.008370347
171	0xbd143839	-0.03618643
172	0x3dce7b64	0.10082129
173	0xbd76eac9	-0.060282502
174	0xbcbe1e32	-0.023207758
175	0x3d3af7a5	0.04564633
176	0xbd876a09	-0.066120215
177	0x3db7b3b5	0.08969823
178	0xbdeb24cf	-0.1148163
179	0x3d928400	0.07154083
180	0x3d6f86f8	0.058478326
181	0xbdaf49a2	-0.08558966
182	0xbd855e12	-0.06512083
183	0xb85de874	-5.2906995e-05
184	0xbd581764	-0.052756682
185	0x3dc39e07	0.09551626
186	0x3cd30dee	0.025763478
187	0x3d2c0aa5	0.04200234
188	0xbc8a5b59	-0.016889261
189	0xbda29980	-0.07939434
190	0x3d9687db	0.07350131
191	0x3e14e163	0.14539103
192	0xbd2d76b4	-0.042349532
193	0x397185e8	0.00023033435
194	0x3d230ed5	0.039809067
195	0x3d700c86	0.058605693
196	0xbddbba4d	-0.107288934
197	0x3da7c9be	0.08192776
198	0x3d682872	0.056679197
199	0xbd0e5c31	-0.03475589
200	0x3dbb898d	0.09157095
201	0xbd4b3832	-0.04961414
202	0xbdb2870e	-0.08717166
203	0xbe39b7b0	-0.18136477
204	0xbc978502	-0.01849604
205	0x3e289eb4	0.1646679
206	0xbd43c61c	-0.047796354
207	0x3d1aac2d	0.037761856
208	0xbdf59791	-0.119917996
209	0x3c49568b	0.0122887
210	0x3d4d89bb	0.050180178
211	0x3ddbccf0	0.10732448
212	0xbd7ef1c2	-0.062242277
213	0xbd86e3e0	-0.065864325
214	0xbcdc4ed4	-0.026893057
215	0xbcbcf365	-0.023065278
216	0x3e0aa122	0.1353803
217	0xbd56026c	-0.052248403
218	0xbd842720	-0.06452775
219	0xbc999fec	-0.018753015
220	0x3e183682	0.14864543
221	0x3c0d2586	0.008614903
222	0xbd24313b	-0.040086012
223	0x3d5bff8a	0.053710498
224	0xbceeac69	-0.029134946
225	0xbc6f5709	-0.014608153
226	0x3c828ceb	0.015936336
227	0xbda9de13	-0.082943104
228	0x3d49e9c4	0.049295202
229	0x3e809518	0.2511375
230	0x3c062ef0	0.008189902
231	0xbc83c69b	-0.016085913
232	0x3e2d4d3c	0.16923994
233	0x3c43b682	0.011945369
234	0x3d2c0279	0.041994546
235	0xbb930523	-0.0044866963
236	0x3c808859	0.015690016
237	0xbcda4bf4	-0.026647545
238	0x3dd5d3bd	0.104407765
239	0xbc858769	-0.01629992
240	0x3c87f80c	0.01659777
241	0x3da6301a	0.081146434
242	0xbe308e79	-0.17241849
243	0xbe5b54c9	-0.21419062
244	0xbd99aad1	-0.07503284
245	0x3d141a2a	0.036157764
246	0x3c93da4e	0.018048432
247	0xbc2902b6	-0.010315588
248	0xbd4af31f	-0.049548265
249	0x3def50e6	0.11685352
250	0xbcdae1e3	-0.02671904
251	0xbd81c71a	-0.06336804
252	0xbd93beba	-0.072141126
253	0xbd4e6cd8	-0.05039677
254	0xbda5c3f8	-0.08094019
255	0xbdc09a88	-0.094044745

lstm.bias_ih_l1 f4 [512]
0	0xbd5d9e23	-0.05410589
1	0xbe707a3c	-0.23484129
2	0xbdfacd2a	-0.12246163
3	0xbe47d97e	-0.1951656
4	0xbe1d4ad3	-0.15360574
5	0xbe134f6a	-0.14385763
6	0xbe5b9f97	-0.21447597
7	0xbe0d72c1	-0.13813306
8	0xbe233ec8	-0.15941918
9	0xbdfaf93f	-0.12254571
10	0xbdee3c78	-0.11632627
11	0xbe71c4b1	-0.23610188
12	0xbddc3a5c	-0.10753319
13	0xbd8b8635	-0.06812707
14	0xbe7b5ace	-0.24546358
15	0xbe745102	-0.23859027
16	0xbe0f8d31	-0.14018704
17	0xbe22ec2c	-0.15910405
18	0xbe5e7a8e	-0.21726438
19	0xbe554296	-0.20826182
20	0xbe2351fd	-0.15949245
21	0xbdb1534c	-0.08658466
22	0xbe193ff7	-0.14965807
23	0xbe28e9c7	-0.16495429
24	0xbe1587ff	-0.1460266
25	0xbdc49bbd	-0.09600017
26	0xbe31cdfe	-0.17363736
27	0xbde85199	-0.113436885
28	0xbdd7e992	-0.10542597
29	0xbeab994c	-0.33515394
30	0xbe012f6b	-0.12615745
31	0xbe70a1ab	-0.23499171
32	0xbe626ba3	-0.22111373
33	0xbd8db738	-0.06919712
34	0xbe444afb	-0.19169228
35	0xbc81c447	-0.015840663
36	0xbe6f0a12	-0.23343685
37	0xbec595a5	-0.38590732
38	0xbd971165	-0.073763646
39	0xbe2178de	-0.15768763
40	0xbd4d1fb8	-0.050079077
41	0xbdd3163b	-0.103069745
42	0xbdf5aed8	-0.119962394
43	0xbe7d90ce	-0.2476227
44	0xbe030181	-0.12793542
45	0xbe4daa07	-0.20084392
46	0xbe449b4a	-0.19199863
47	0xbe8925aa	-0.26786548
48	0xbe3f1bce	-0.1866295
49	0xbe44b1ed	-0.19208498
50	0xbe1d6439	-0.15370263
51	0xbdfed438	-0.12442821
52	0xbe51c6a9	-0.20485939
53	0xbe35116b	-0.17682426
54	0xbe2a347c	-0.16621584
55	0xbe8a97a8	-0.2706883
56	0xbe3a2e5e	-0.1818175
57	0xbe20dee3	-0.15710025
58	0xbdf83a84	-0.12120536
59	0xbe785eb4	-0.24254876
60	0xbe43d15a	-0.1912283
61	0xbec6ebbc	-0.38851726
62	0xbe879934	-0.26484072
63	0xbe397fe9	-0.181152
64	0xbe03a966	-0.12857589
65	0xbdfcff20	-0.12353349
66	0xbe41c45e	-0.18922564
67	0xbe680b20	-0.22660494
68	0xbe3951dc	-0.18097633
69	0xbe6b66be	-0.22988412
70	0xbda450a8	-0.080231965
71	0xbe3710a9	-0.17877449
72	0xbe45d42b	-0.19319217
73	0xbe4f617f	-0.20252036
74	0xbe128761	-0.14309455
75	0xbdffccf8	-0.124902666
76	0xbe605875	-0.21908744
77	0xbe04729b	-0.12934344
78	0xbe755765	-0.2395912
79	0xbdd133c4	-0.10214952
80	0xbdb9c6eb	-0.09071144
81	0xbe0a7bf0	-0.13523841
82	0xbe4b955e	-0.19881198
83	0xbdfe22e0	-0.12408996
84	0xbdea3d7d	-0.11437509
85	0xbe4334e8	-0.19063151
86	0xbe05c4f3	-0.13063411
87	0xbde312c4	-0.11087564
88	0xbd8239d4	-0.06358686
89	0xbe5573fd	-0.20845027
90	0xbdd847fb	-0.10560604
91	0xbe6df0de	-0.23236415
92	0xbd95af05	-0.07308773
93	0xbe5794ff	-0.21052931
94	0xbe491813	-0.1963809
95	0xbde68ae7	-0.11256962
96	0xbdd46ae4	-0.1037195
97	0xbe39d38a	-0.18147102
98	0xbdd2ddad	-0.102961875
99	0xbe18ce15	-0.14922364
100	0xbd44d3ba	-0.04805348
101	0xbe188815	-0.14895661
102	0xbe552eba	-0.20818606
103	0xbe025d53	-0.12730913
104	0xbe66ff28	-0.22558272
105	0xbe47afac	-0.19500607
106	0xbdab2ece	-0.08358537
107	0xbe634b67	-0.22196732
108	0xbda4bea9	-0.08044178
109	0xbdf9d5d4	-0.121989876
110	0xbe18afc0	-0.14910793
111	0xbe9026c5	-0.2815458
112	0xbcfef6c1	-0.03112352
113	0xbe83ed4e	-0.25766987
114	0xbdc5599d	-0.09636233
115	0xbe5e179f	-0.21688698
116	0xbe1ffdb9	-0.15624131
117	0xbe457633	-0.1928337
118	0xbe6b10a4	-0.22955567
119	0xbe69743c	-0.22798246
120	0xbe81b700	-0.2533493
121	0xbd00900a	-0.031387366
122	0xbd9ce595	-0.07660977
123	0xbe28b51a	-0.16475335
124	0xbded41ca	-0.11584814
125	0xbdf53f72	-0.11974992
126	0xbd829ed6	-0.06377952
127	0xbe56df19	-0.20983543
128	0xbe310002	-0.17285159
129	0xbe4bbcfa	-0.19896308
130	0xbe2d1b37	-0.16904913
131	0xbe14d825	-0.14535578
132	0xbd8465d5	-0.064647354
133	0xbe29da42	-0.16587165
134	0xbe4deb65	-0.20109327
135	0xbdaedc77	-0.08538144
136	0xbdc4ced0	-0.09609759
137	0xbe13d493	-0.1443656
138	0xbdf92f0d	-0.12167177
139	0xbe5aeccb	-0.21379392
140	0xbe8a4c45	-0.27011314
141	0xbe0b5b3c	-0.13609022
142	0xbe1c0770	-0.15237212
143	0xbe6f95a2	-0.23396924
144	0xbe1baaba	-0.15201846
145	0xbe165f40	-0.14684772
146	0xbdd085de	-0.10181783
147	0xbe35287b	-0.17691223
148	0xbdf7a926	-0.120928094
149	0xbe4b0ffc	-0.19830316
150	0xbe2585cc	-0.1616432
151	0xbe2d083c	-0.16897672
152	0xbe852f4e	-0.26012653
153	0xbddeacfa	-0.108728364
154	0xbe6bf9d7	-0.23044525
155	0xbe5476da	-0.20748463
156	0xbe6f6817	-0.23379551
157	0xbea7d1b6	-0.32777184
158	0xbda532b1	-0.08066309
159	0xbe4eb21e	-0.20185134
160	0xbe469a11	-0.19394709
161	0xbd8a0c3c	-0.06740615
162	0xbdf5095a	-0.11964674
163	0xbe236231	-0.15955426
164	0xbe3de93d	-0.18546005
165	0xbe4ba0f3	-0.19885616
166	0xbd37df9b	-0.04489098
167	0xbe312f55	-0.17303212
168	0xbdd94285	-0.10608391
169	0xbe59ba6b	-0.21262519
170	0xbd9ac33c	-0.07556769
171	0xbe29abec	-0.16569489
172	0xbe13438f	-0.1438124
173	0xbe9eea88	-0.31038308
174	0xbe2ff335	-0.1718262
175	0xbe7a975a	-0.24471799
176	0xbdb1f1e2	-0.086887136
177	0xbe397447	-0.18110763
178	0xbe28fe9b	-0.16503374
179	0xbdf745ce	-0.12073861
180	0xbe6cf744	-0.231412
181	0xbe37c69f	-0.17946862
182	0xbe3cb2f3	-0.18427639
183	0xbe0de7d0	-0.1385796
184	0xbdc3e8b9	-0.09565873
185	0xbde065a3	-0.10956886
186	0xbdb8b6a4	-0.09019211
187	0xbdbf69fa	-0.09346385
188	0xbe6ecca5	-0.23320253
189	0xbe370615	-0.17873414
190	0xbe3de68d	-0.1854498
191	0xbe592e53	-0.21209078
192	0xbdfb21cf	-0.12262308
193	0xbe30cf6c	-0.17266625
194	0xbe184de5	-0.14873464
195	0xbe884016	-0.26611394
196	0xbdc96c8f	-0.09835159
197	0xbe164420	-0.14674425
198	0xbe2a7b32	-0.16648558
199	0xbe2de58b	-0.16982095
200	0xbe2bee05	-0.16790016
201	0xbd98eea5	-0.07467393
202	0xbe0e27fc	-0.1388244
203	0x3d4a6557	0.04941305
204	0xbe2b4ce4	-0.1672855
205	0xbe0fe31f	-0.14051484
206	0xbe24fb5d	-0.16111512
207	0xbe39d511	-0.18147685
208	0xbe542a8b	-0.20719354
209	0xbe2f7903	-0.17136006
210	0xbe39134f	-0.18073772
211	0xbd6a7498	-0.0572401
212	0xbdd611ab	-0.10452589
213	0xbec0f389	-0.37685803
214	0xbe45ea2d	-0.19327612
215	0xbe252fdd	-0.1613154
216	0xbe15f8db	-0.14645712
217	0xbe6751a0	-0.22589731
218	0xbe121b6e	-0.14268276
219	0xbe1e7a3e	-0.15476319
220	0xbe19ad0d	-0.1500742
221	0xbe97c819	-0.2964485
222	0xbe9f2217	-0.31080696
223	0xbe54ae0c	-0.20769519
224	0xbe3812ac	-0.17975873
225	0xbdd90d46	-0.10598235
226	0xbd93c463	-0.07215192
227	0xbe550e3a	-0.20806208
228	0xbe6064ca	-0.21913448
229	0xbdf9c8ba	-0.12196489
230	0xbe4a8d13	-0.19780378
231	0xbe119509	-0.14217009
232	0xbe01b376	-0.12666115
233	0xbe20961a	-0.15682259
234	0xbe539bb1	-0.2066486
235	0xbe41f751	-0.18942
236	0xbd56ff15	-0.05248936
237	0xbe71c71f	-0.23611115
238	0xbe0d0feb	-0.13775603
239	0xbe482f19	-0.19549216
240	0xbd2b1e81	-0.041777138
241	0xbe3bb231	-0.18329693
242	0xbe699e3c	-0.22814268
243	0xbdf39aa0	-0.11894727
244	0xbe0afc84	-0.1357289
245	0xbdefd480	-0.11710453
246	0xbe1c5d7e	-0.1527004
247	0xbe3dcef7	-0.18535982
248	0xbde50e96	-0.11184423
249	0xbd96f588	-0.0737105
250	0xbd55304d	-0.052048016
251	0xbe564168	-0.20923388
252	0xbe5322ec	-0.2061879
253	0xbd9552e8	-0.07291204
254	0xbe01a753	-0.12661485
255	0xbe1540e8	-0.14575541
