NDX/result/lstm_final_optimized_model.pth (torch, 339426 bytes, 15 tensors)

lstm.weight_ih_l0 f4 [256, 40]
00000000: dade 793d 9b6b 78bd cbfd b5bd f20f 153d
00000010: 573c ee3b 7fb0 df3d 4521 dcbd 9c8e 873d
00000020: 3106 c5bc efbe 2a3d 6da5 a5bd a9f0 e13d
00000030: 706f 803d 4002 b6bd 0974 093d cabf 06be
00000040: 7a0a 093d 45cc 99bc ab71 c1bd d1c8 48bd
00000050: dad5 2bbd 0643 38bc e951 e93d ac7c 19bd
00000060: b1a5 dcbd 9dae 8ebd eaa3 013e 14af 853d
00000070: 0586 843d e294 a43d 98ff 04be d8b4 40bc
00000080: 26ac 213d f37a c0bd 556b d03d ac4b 043e
00000090: 73b7 cfbd 909b d5bd c699 983d e53f cfbc
000000a0: f1eb 0b3e 5b57 48bc b68c f2bd 0168 0f3e
000000b0: 1ead 03be 396e 363d 27b6 0e3e d5df ffbd
000000c0: a773 0abe e0cd 9e3d 5818 a9bc 9e01 d13d
000000d0: f0ac d3bc e467 e7bd 89b8 873d dfc9 c5bd
000000e0: b868 89bc f31a fabd faa9 a73d 4daf 14be
000000f0: 3198 febc ee53 a8bd 66b4 e03d 8387 54bd
00000100: 3489 113d 6a4e a03b 8bec 75bd f2d9 abbd
00000110: 286d 99bd 447d 11bd cf96 af3d 3064 acbc
00000120: 113c 89bd 42d8 4e3d 12b1 24bc c6f0 863d
00000130: 5bce be3d 3aec 043d 429d 173e e211 d43d
00000140: b600 d73d 2b8a 1dbd 4991 853d 294b 093e
00000150: ea50 693d d264 373d 0493 08be 5d63 97bd
00000160: 3afc 9a3c 474a 81bd 1cf0 b0bd bfcb e4bd
00000170: 8fe5 073d 9612 da3d ffc3 68bd 949c b03d
00000180: 42dd 21bd 414c d6bd be54 04be 8570 a3bd
00000190: cecd 9fbd e088 2fbd ec05 ccbc bc40 c9bd
000001a0: a2e5 1fbd 2928 923c 1aba 8a3d 353b f03b
000001b0: a991 c7bd 4fae 0e3e 1af3 04bd 2389 41bd
000001c0: 20fd c93d 6a93 ee3d 413d af3d 362f 2f3d
000001d0: 0dee 38bd 8f64 03be 4e48 98bd 6a67 e8bd
000001e0: 294e 06be 2dc4 96bd a5f1 013d a13a f5bd
000001f0: a7c6 99bd 379e d8bd 16e1 133e fe16 db3d
00000200: 2d11 f5bd ef04 dc3d 57ce 0abc 9050 a73d
00000210: 5c9f e33d b6db 053e 7220 993a 31af 52bd
00000220: 17ed e8ba b78a 98bd 22ba 0bbe dbd4 cd3d
00000230: c633 8e3c c5d5 fdbd e915 443d e578 0abe
00000240: ee9b b6bd d9ee 073e d7d3 3c3c 5ffc ca3a
00000250: 2fca da3c fb09 a7bd 39b7 073e cd8e 06be
00000260: a8d1 d8bd fc94 fdbd b30e 22bc 8dbe b83d
00000270: 4c16 eebd a623 c83d f872 4c3c 3ff2 e43c
00000280: e571 c0bd 6604 203b 1b90 24bd ecfb e7bc
00000290: 423d ec3d bf08 8fbb 0ade adbd 9391 b2bd
000002a0: 6792 4fbd 8eb4 08be 8c94 c3bc 2d5c f2bd
000002b0: 37ad adbc 15c8 5f3d f6f0 8c3d 8c61 93bd
000002c0: 71be cdbd e011 aa3d 0eb2 92bc 5b33 f63d
000002d0: 3836 333d 947b 5a3c 4534 753d 0030 d0bd
000002e0: ab1c d83d a5ec 243d a8d4 02be 8612 db3d
000002f0: f605 bd3d 5206 933d 5b98 103e 573a 2ebc
00000300: f7b6 80bc c328 953d 2207 ee3d 2a0b fe3c
00000310: e101 b23d 9103 8d3d ead9 09be 4410 cabd
00000320: 916a 52bd 114a ef3d 05a3 36bd 7442 d9bd
00000330: f4ec edbd b454 f8bc ddab 893d f781 bbbd
00000340: 059d 05bb 744a a9bd b5a3 b53d 3edf 4cbd
00000350: 2fc5 f73d 45f1 2fbc 94bb 653d 2b7e 0c3e
00000360: ac74 b63d 62be 763d e466 98bd af37 c1bd
00000370: 22a1 dd3c fb05 aa3c 0817 ea3d c75b ea3d
00000380: 448d 07be 356b 053e 317f e23d 7603 6bbd
00000390: c5d2 79bd 0ddf 0ebe 1f66 b6bd 9134 203c
000003a0: f534 93bd 5f56 9b3d ff61 283d 8b72 013e
000003b0: a46c 88bd 2f0c cfbb 27b7 cbbd fc7e c53d
000003c0: c802 673d 7377 1dbd d2dd 8fbd 1317 023e
000003d0: 5b5b 8b3c 3e6f dcbd 0fe0 973d 8590 b1bd
000003e0: 15a2 2b3d 3a9f 103e 74a3 cd3d 9469 053c
000003f0: f6ec 9bbd 107c 363d 5daf 533c 5b43 d03d
0.061003543 -0.060649496 -0.08886298 0.03639216 0.0072703767 0.10922336 -0.10748533 0.066189975
-0.024050804 0.041685995 -0.08088193 0.110322304 0.06271255 -0.08887148 0.033557925 -0.13159099
0.033457257 -0.018774161 -0.094455086 -0.04901964 -0.04195199 -0.011246448 0.11392576 -0.037472412
-0.10773791 -0.069668986 0.12660185 0.06527534 0.06470875 0.0803621 -0.12988126 -0.0117618665
0.039470814 -0.09398451 0.10176722 0.12919492 -0.10142412 -0.10430062 0.07451205 -0.025299022
0.13664223 -0.012227858 -0.11843245 0.14004518 -0.12859008 0.04453871 0.13936673 -0.124938644
-0.1352068 0.07754111 -0.02064149 0.102053866 -0.025839299 -0.112991124 0.06626994 -0.096576445
-0.016773567 -0.122121714 0.08186717 -0.14519997 -0.03107843 -0.08219133 0.10971908 -0.051887047
0.035531238 0.00489216 -0.060040038 -0.08391179 -0.07491523 -0.035519853 0.08573686 -0.021043867
-0.0670091 0.05049921 -0.0100519825 0.06588893 0.09316703 0.032451846 0.14806083 0.103549734
0.104981825 -0.038461845 0.065218516 0.13407578 0.05696193 0.044773884 -0.13337332 -0.07391999
0.0189191 -0.063129954 -0.08639547 -0.11171674 0.03317791 0.10648076 -0.05682754 0.08623615
-0.03951765 -0.10463763 -0.12922952 -0.07980446 -0.07802926 -0.042855144 -0.024905168 -0.098268
-0.039037354 0.017841415 0.06773777 0.007331277 -0.09744579 0.13933681 -0.032458402 -0.047249924
0.09862733 0.11649211 0.08556605 0.042769633 -0.045148898 -0.12831329 -0.07435666 -0.1134785
-0.13115753 -0.07361636 0.03172459 -0.11974073 -0.07508593 -0.10577052 0.14441332 0.10697745
-0.11966167 0.107431285 -0.008472047 0.08169663 0.1111438 0.13072094 0.0011682643 -0.051436607
-0.0017770854 -0.07448333 -0.13645223 0.100503646 0.017358672 -0.12394289 0.047872458 -0.1352268
-0.0891646 0.13274707 0.011525116 0.0015486589 0.026707737 -0.081562005 0.13253488 -0.13140412
-0.10586864 -0.12381932 -0.0098912 0.0902072 -0.116253465 0.097724244 0.012478583 0.027947543
-0.09396724 0.0024416684 -0.040176492 -0.028318368 0.115351215 -0.0043650563 -0.08489616 -0.08719172
-0.05067673 -0.13350126 -0.023874544 -0.118339874 -0.02120076 0.054634172 0.06881897 -0.0719634
-0.100460894 0.08304191 -0.017907169 0.12021514 0.04375288 0.013335127 0.0598643 -0.10165405
0.10552343 0.040264744 -0.12776434 0.106968924 0.092296526 0.0717894 0.14120619 -0.0106340265
-0.015712244 0.07283165 0.11622454 0.031011183 0.086917646 0.06885446 -0.13462034 -0.09866384
-0.05137116 0.11684049 -0.04458906 -0.10608378 -0.11617461 -0.030313827 0.067222334 -0.09155648
-0.002038778 -0.08266154 0.08869115 -0.050017588 0.12098157 -0.0107386755 0.05608709 0.13720004
0.08908972 0.060240157 -0.074415 -0.09434449 0.027054373 0.020754805 0.11430174 0.114432864
-0.13237482 0.13029177 0.11059416 -0.057376347 -0.06099202 -0.13952275 -0.08906197 0.009778158
-0.07187835 0.07584833 0.04110908 0.12641351 -0.066613466 -0.006318591 -0.09947043 0.09643361
0.056399137 -0.038443994 -0.07024731 0.12704115 0.017011335 -0.10763405 0.07415783 -0.08670143
0.04190262 0.1412324 0.10040942 0.008142848 -0.07613556 0.04455191 0.012920228 0.10169097

lstm.weight_hh_l0 f4 [256, 64]
00000000: da76 1d3c 5a96 3d3e a7f5 e73c 81e4 823d
00000010: 648e 47bc 2755 5a3c ed90 553d 0bcb d8ba
00000020: fe87 0abd c518 81bd dd02 b23c 6965 0e3d
00000030: f8c2 40bd 03bd 3e3d d307 063e cab2 9ebd
00000040: 0776 5dbc 75cc 81bd ac85 c4bb c5f3 fb3c
00000050: 2b75 373d 262b b5bd 9dfb debc 2e24 88bd
00000060: 3c48 b7bd 3318 8dbb 3cf8 c2bc afe9 bf3c
00000070: 0a13 6b3d 1c8e 60bd a36f 883d 1630 92bd
00000080: eaa0 2e3d ba3a 413d 9388 103d ce11 9a3d
00000090: 7b27 9abd 66ab dfbd d8ef 633d 5d04 aa3d
000000a0: 553e 013d 1a8c ef3d 5328 dbbd 9e6a a7bb
000000b0: 7a39 d53c 0d24 d2bd fd9e 2c3c b8a3 0c3c
000000c0: a1ae f03c 211e d43d ef88 e73d 6e32 69bc
000000d0: 9068 46bc b7a8 9fbd 87e0 9cbd 9e7d 6b3d
000000e0: 0e23 06bd a942 803c 7f4b 683a d4f1 5a3d
000000f0: c43b b83b b9c5 05bb c79b 6cbd a9a2 17bd
00000100: 3868 543c 638b 373c bee2 e1bb 41e3 503d
00000110: ff64 ca3d 3eb4 233c d286 503d 06c3 afbb
00000120: 1ab3 33bd a6f3 8d3d 5f2a 783d bd02 1fbe
00000130: 102e d23c f6f5 78bd 70ae 93bb 4a88 8e3d
00000140: 9131 08bd 4eab 29be 48db 2f3d 077a 17bd
00000150: 2f07 72bc b832 f0bd af04 b43c f87c 103d
00000160: adc6 b8bd 6564 25bd c4a6 0a3e aa78 2abc
00000170: 88d6 243c e117 3dbc 012b 3cbb 1e2d cd3d
00000180: d8c1 a9bc 094e fe3c cd8e 923d 0ef9 853c
00000190: c4d3 e5bb b319 3b3d fa04 6abb 9292 0ebc
000001a0: a374 08bd 1e80 b83b 98a3 00bd b7cc 7aba
000001b0: 78f3 963b 4be0 d73c 71ff a83d 3e07 e93c
000001c0: acd1 c4bd cb47 53bd 021c 98bb 60b5 4ebd
000001d0: 7d84 653d 04a8 b4bc b776 3fbd b048 8cbc
000001e0: 236f dfbd 21dc 333d 66d6 813c 2b76 483c
000001f0: 263a 8dbd be0c 463d d050 0c3d 2f58 49bc
00000200: a964 eebd dd1c eebb 8103 0ebd 530a 76bd
00000210: 7021 01bc 7bf4 a43b 90af e13c 1e23 01bd
00000220: 8537 053d 3b98 a8bd 5db5 97bd 9399 b53c
00000230: df97 833d e292 013e bf53 f9bb 4bb8 74bc
00000240: 32a2 1bbb 1b3b 2f3c 78fd b6bc ee48 8cbb
00000250: f6ee 99bd 61ea f63d 5d4e e7bc 9070 f13c
00000260: e6ff 4fbd ee08 f13c ad17 e83d 2744 613d
00000270: 07cd 8b3d f44f 6dbd 7735 4cbd 8ef7 3e3d
00000280: debd 443c e0d8 1a3d a83d c5bd 2600 c9bd
00000290: 9e7c 0d3e 7f05 153c a5cc d73c de5b 4b3c
000002a0: 1950 983d 5f5a 5cbd 20af 8f3d c622 b63d
000002b0: 67df 19bd 7bab ce3d 7647 e3bd 404a cd3d
000002c0: 7789 96bd 3160 263d 99d8 94ba 2bce af3d
000002d0: c5a5 003e c9c9 7a3b b4c6 28be b333 f1bd
000002e0: 1ac8 9d39 b153 cd3d 5631 153c a691 023b
000002f0: 4756 21bd e01f c83d fcba f63c 0c61 3fbb
00000300: 7a58 f5bd 976f 203d a09a 1d3d 0ce2 803d
00000310: c5ea e13c 0ce1 febc 892c 0f3e c645 7ebd
00000320: 0ce6 9dbd c1ef 1b3e 8609 ba3c 70af 5abd
00000330: aece 35bc c81d bdbc 513f 23bd 1bbf 963b
00000340: 961a a93b 2707 913c d9b0 2a3d 1671 c4bc
00000350: 84eb f33d 10fe 253d ac88 45bb 4ef7 f5bd
00000360: ee9b 9fbd 712e 803d a175 043c bce7 193d
00000370: 32ae 84bd 498b b83b 78f2 c7bd a444 813d
00000380: 26af 513d e851 8a3d 6fb2 7e3d a888 10bd
00000390: 7007 7e3d 1b0a 803d 9fd6 0e3c 2d63 4d3d
000003a0: c65e a73d 76a9 62bd 8575 18be 28a2 64bb
000003b0: 36e8 c13c 8312 f33d b0c6 8ebc 44de ddbc
000003c0: f092 dabd 0498 a13c 7f13 183e 7694 90bb
000003d0: 37b3 813d 79d1 6c3c 0994 843c 84db 5fbd
000003e0: 413a b63c 9d07 393d 2041 263e 0ec4 9dbd
000003f0: 5233 e7bd 36d1 8c3d e5b4 b83c 0a75 473d
0.009610856 0.18514386 0.028315378 0.0639124 -0.012179945 0.013325966 0.052140165 -0.0016540004
-0.0338211 -0.063035525 0.021729881 0.03476468 -0.047060937 0.046566974 0.13088922 -0.07748945
-0.013516909 -0.06337825 -0.0059973802 0.030755887 0.044789474 -0.088461205 -0.027219588 -0.06647526
-0.089493245 -0.0043058633 -0.023800008 0.023426859 0.057391204 -0.054823026 0.06661918 -0.07138078
0.04263393 0.047175147 0.035286497 0.07522927 -0.075270616 -0.109213635 0.055648655 0.083016135
0.031553585 0.11696644 -0.107010506 -0.0051091453 0.026028384 -0.102607824 0.010535953 0.0085839555
0.029380145 0.10357309 0.11305415 -0.014233215 -0.012109891 -0.07795852 -0.07660013 0.057492845
-0.032748275 0.015656786 0.00088613475 0.05345328 0.005622359 -0.0020412041 -0.05776575 -0.03702036
0.012964301 0.011202666 -0.006893485 0.050997976 0.09882545 0.009991704 0.050909825 -0.005363825
-0.043871976 0.06931238 0.060587283 -0.15528388 0.02565673 -0.06078144 -0.0045068786 0.06959589
-0.033250395 -0.16569254 0.042933732 -0.03698161 -0.0147722205 -0.11728424 0.02197489 0.03527543
-0.090222694 -0.040378947 0.13540179 -0.010404745 0.010060914 -0.011541338 -0.0028712156 0.10018371
-0.020722315 0.03104307 0.07156143 0.01635411 -0.00701377 0.045678806 -0.0035708533 -0.008701937
-0.03331436 0.005630507 -0.031406015 -0.0009567248 0.0046066605 0.026352068 0.082518466 0.028445836
-0.09610304 -0.05158214 -0.0046420107 -0.05046594 0.056034554 -0.022052772 -0.046744075 -0.017124504
-0.109098695 0.043911103 0.015849303 0.012235205 -0.068958566 0.048351996 0.034256756 -0.012289091
-0.11640293 -0.0072666244 -0.03467131 -0.06006844 -0.007881507 0.005034027 0.027549535 -0.03152763
0.03252365 -0.08232161 -0.07407639 0.022167956 0.064254515 0.12653688 -0.0076088603 -0.014936517
-0.00237478 0.010695244 -0.02233766 -0.004281155 -0.07516281 0.12056423 -0.028235609 0.02947262
-0.050781153 0.029423203 0.11332641 0.054996636 0.06826215 -0.057937577 -0.049855676 0.046622805
0.0120081585 0.037804484 -0.096309006 -0.098144814 0.13817069 0.009095549 0.0263427 0.01241204
0.074371524 -0.053797122 0.07015824 0.08893351 -0.03756657 0.10091301 -0.110976145 0.10023928
-0.07350438 0.04061908 -0.0011356055 0.08584245 0.12563236 0.0038267246 -0.16482049 -0.11777439
0.0003009446 0.100257285 0.009106001 0.001992324 -0.03938892 0.09771705 0.030118458 -0.0029202132
-0.11979766 0.03916892 0.03847754 0.06293115 0.027577767 -0.03111317 0.13981833 -0.06207826
-0.077098936 0.15228178 0.02270962 -0.053389966 -0.01109664 -0.02308549 -0.039855305 0.0046004183
0.00516064 0.017703606 0.04167256 -0.023979705 0.119101554 0.040525496 -0.0030141277 -0.1201006
-0.07793413 0.06258858 0.008084686 0.037574515 -0.064785376 0.0056318385 -0.09763044 0.0631192
0.051192425 0.067539036 0.062181886 -0.035286576 0.06201881 0.062519275 0.008718162 0.05014341
0.081723735 -0.05533739 -0.1488858 -0.0034886692 0.023670297 0.11868765 -0.017428726 -0.027083524
-0.10672557 0.019725807 0.14851187 -0.004412229 0.06333011 0.014454239 0.01618387 -0.054652706
0.022244575 0.045173276 0.1623578 -0.0770341 -0.112890854 0.06875841 0.022547195 0.0486956

lstm.bias_ih_l0 f4 [256]
00000000: 01da a33b 8325 94bb 15ed 54bb 9354 993b
00000010: bdce b0bb 7052 d6bb b981 0a3c 56f3 bf3b
00000020: ca3f 68bb b236 de3b 2fbf 833b 7e7e 203c
00000030: 46f3 323b e4fb 4e3b 759f 8a3b 005d 213a
00000040: 4f13 543c ced9 023c 9b54 1cbc 2902 f8ba
00000050: 99c4 86ba 350b e6bb a113 e7bb a81e dd3b
00000060: eb07 d23b 8087 f33b 39b8 883a f637 8c3a
00000070: 8733 333c b0fc fe39 de82 8dbb ba95 723b
00000080: b6fb a93b b0f9 163c 7b91 fe3b 9bc7 0d3c
00000090: 32cb 793b afa0 e7bb dd6a f73a da9d e5bb
000000a0: f600 063c e853 e3bb 5433 5a3c 5052 233c
000000b0: fc60 ecbb a67a c1bb 0d33 2ebb e8a6 963a
000000c0: 2ff2 be3a ee3a 0abc ce77 043c a5ee a9bb
000000d0: d0c8 febb 50cf 8b3b 2386 69bb 8e4e d23b
000000e0: 56b6 b1b9 8066 ce3b 3d9b b73b 5a11 a13b
000000f0: 5c90 e43b 755d c03b cc40 b1bb 083e 41bc
00000100: 7567 033b fdb6 c6bb 57d8 f43a e952 013c
00000110: 82f4 76bb 1cde cfbb 5fed 0a3c 3cfe 923b
00000120: 90f5 00bc f3e8 d33b 0002 d53b 982a d33b
00000130: 90f0 bfba 404f 423a b3ea 943b 173d 053b
00000140: 3ae9 643c 8848 003c 846e f4bb 2bfa 013c
00000150: 0411 9fbb 08f0 e5bb 4fbd 48bb 32b1 a33b
00000160: bd35 dc3b 465c 753b f2b2 5cbb 3bce b7ba
00000170: 493d e73b b552 b0ba 5e42 d5bb c01e a7ba
00000180: ddf3 4b3b 5c40 013c a5b9 af3b 1ea8 6a3b
00000190: e7de 473a 9cb4 fabb a9f2 92bb a612 33bc
000001a0: 17ad 023c 7d21 b9bb a5f5 3a3c 544b 343c
000001b0: 3905 12bc 9449 7dbb dd24 33bb b6d1 db3a
000001c0: 893a feba 271e 1cbc 279d 4b3b 5338 4dbb
000001d0: c545 3cbb f051 353a 719a 433a c73c c33b
000001e0: 4079 5c3b 82ad 793b adc2 a13b ec64 893b
000001f0: 65a0 183b c7db 763b 6e2c e3bb b20d 24bc
00000200: 463f de3a 5ae5 123b 898d 37bb 3a58 c0ba
00000210: 4e77 8b3b ce65 c23a daf7 983b 8935 abb9
00000220: adf1 82bb 899a f2ba 8a92 2b3b 4f79 8b3b
00000230: 9c78 443b 8545 5d3b 55c0 04bb d51c 48bb
00000240: 8254 8b3b 66a1 b13b d021 45bb 0bce 593b
00000250: f031 8aba 36ca aa3b 7f75 d23a 8239 3ebb
00000260: 4b4e 273b d4f0 c63a c7bf 073b d393 a33b
00000270: e796 a0bb 90cf 793b 1959 a23b 06be 7e3b
00000280: 6674 3f3b 0c6e cc3a 0615 663b 5165 af3a
00000290: 0e3c 703b 3938 a539 f23a e83a 6046 f936
000002a0: 317b be3b fdca a33b 4fe2 263b ebb6 593b
000002b0: a41f 24bb c2a2 6b3b deba 62bb fc9d e93b
000002c0: a1a4 4ebb 66e9 28bb 36f4 20bb c428 ebba
000002d0: 020b 9aba eb5d 1b3b c3ce 70ba b501 d13a
000002e0: 02e3 13b7 3422 94bb 6533 6ebb 2e05 8d3b
000002f0: da25 9c3b 2c67 7ebb 6825 55bb 025f a9bb
00000300: 0e1a 893b fd2b e139 0ed9 86bb 2d99 993b
00000310: 0301 e4bb 78af f5bb 370d 163c 1846 033c
00000320: 20b0 b5bb 1034 ad3b c113 0a3b f88c 1a3c
00000330: 7484 a23b 09f7 883a 6301 8d3b 8a62 24ba
00000340: ed02 4b3c 8dd4 1d3c 35ce 36bc ba3b 833a
00000350: b376 013b 7963 a4bb dc18 a9bb 5957 d43b
00000360: 7c34 dd3b 812b a33b dd22 adb9 7036 9a38
00000370: 61bc 303c 241c 41ba 7ece 54bb 265d 453b
00000380: 5b5a 9f3b e4d1 0e3c d274 9d3b 275b da3b
00000390: 5a16 b03a a8fd c8bb bf01 24bb 1bf1 e8bb
000003a0: d383 033c 8d32 d5bb d42e 4b3c 9a64 383c
000003b0: c813 0cbc 2666 a7bb 25df 9bbb ac0e 12bb
000003c0: 3216 5e3a 0b91 0abc 1635 2b3c 0d2a 99bb
000003d0: 9bab b9bb d60e 933b cc0b 81bb 906f c93b
000003e0: 991f 1b3b 0efa dc3b 1b63 d83b 3cde 953b
000003f0: 9571 a43b fe81 cd3b 9b45 f4bb 5eca 36bc
0.0050003533 -0.0045210733 -0.0032489945 0.0046792715 -0.005395739 -0.006540589 0.00845378 0.0058578653
-0.0035438412 0.0067814225 0.0040205936 0.009795783 0.0027305647 0.0031583244 0.0042304345 0.00061555207
0.012944057 0.007986499 -0.009541656 -0.0018921542 -0.0010281979 -0.007020379 -0.0070519005 0.0067480393
0.0064096353 0.0074319243 0.0010430879 0.001069783 0.010937578 0.00048634922 -0.004318579 0.0037015514
0.005187477 0.009214804 0.0077688075 0.008653547 0.0038115499 -0.0070687155 0.0018876452 -0.0070073428
0.00817894 -0.0069374926 0.013317902 0.009968355 -0.00721371 -0.0059045134 -0.0026580722 0.0011493834
0.0014568026 -0.0084369015 0.008085204 -0.0051859193 -0.0077754036 0.004266657 -0.003563293 0.006418056
-0.00033895922 0.00629884 0.0056032226 0.0049153985 0.006975217 0.005870516 -0.0054093357 -0.011794575
0.002005068 -0.0060642944 0.0018680197 0.0078933025 -0.003768236 -0.006343616 0.008479445 0.0044858735
-0.007871047 0.0064669787 0.0065004826 0.0064442866 -0.0014643837 0.0007412322 0.00454458 0.0020330602
0.013971621 0.007829793 -0.0074594636 0.00793318 -0.0048543233 -0.0070171393 -0.0030630415 0.0049954886
0.0067202733 0.0037439032 -0.0033675996 -0.0014023253 0.0070568663 -0.0013452383 -0.0065081557 -0.0012750253
0.0031120696 0.00788888 0.0053627067 0.0035805772 0.00076244626 -0.007650925 -0.0044844938 -0.010929739
0.007975838 -0.005649744 0.011411105 0.011004288 -0.008912378 -0.0038648592 -0.0027335205 0.0016770873
-0.0019396107 -0.009528673 0.0031069012 -0.003131409 -0.002872811 0.00069168117 0.0007461673 0.005958173
0.0033641607 0.0038097803 0.0049365372 0.004192939 0.0023288962 0.0037667619 -0.0069327867 -0.010013031
0.0016956113 0.0022414536 -0.0028007946 -0.0014674731 0.0042561656 0.0014831366 0.004668218 -0.00032655548
-0.003996095 -0.001850919 0.0026179873 0.0042564045 0.0029979115 0.003376336 -0.002025624 -0.0030534763
0.0042520175 0.0054208515 -0.0030079968 0.0033234383 -0.0010543447 0.0052120937 0.0016056745 -0.0029025977
0.0025528844 0.0015177974 0.0020713673 0.0049919873 -0.0049008015 0.0038118102 0.004954469 0.0038870587
0.0029213666 0.0015596761 0.0035107746 0.0013381635 0.003665689 0.00031513142 0.0017717762 7.428971e-06
0.0058130254 0.0049985633 0.002546448 0.00332206 -0.0025043273 0.0035955166 -0.0034596245 0.007129429
-0.0031531232 -0.0025773882 -0.0024559624 -0.0017941226 -0.0011752548 0.0023707103 -0.00091860833 0.0015945943
-8.814737e-06 -0.004520679 -0.0036346551 0.004303596 0.0047652544 -0.003881882 -0.0032523517 -0.0051687965
0.004184014 0.00042948118 -0.0041152304 0.0046874494 -0.0069581284 -0.007497724 0.009158424 0.008012317
-0.0055446774 0.0052857473 0.0021068903 0.009433024 0.0049596373 0.0010449599 0.004303144 -0.0006270787
0.012390834 0.009633196 -0.011157562 0.0010012307 0.0019754588 -0.005016741 -0.005160434 0.006480139
0.0067506414 0.0049795513 -0.00033023107 7.353432e-05 0.0107871005 -0.0007366559 -0.0032471712 0.0030115335
0.004863066 0.008717034 0.004805186 0.0066636982 0.0013434396 -0.006133754 -0.0025025455 -0.00710882
0.008027035 -0.0065062703 0.012401301 0.011254454 -0.008549638 -0.0051086126 -0.0047568255 -0.0022286577
0.0008471935 -0.0084574325 0.010449668 -0.0046742023 -0.005666209 0.0044878526 -0.003938174 0.0061473325
0.0023669957 0.006743676 0.006603611 0.0045736115 0.005018423 0.0062716 -0.0074545867 -0.011156647

lstm.bias_hh_l0 f4 [256]
00000000: 01da a33b 8325 94bb 15ed 54bb 9354 993b
00000010: bdce b0bb 7052 d6bb b981 0a3c 56f3 bf3b
00000020: ca3f 68bb b236 de3b 2fbf 833b 7e7e 203c
00000030: 46f3 323b e4fb 4e3b 759f 8a3b 005d 213a
00000040: 4f13 543c ced9 023c 9b54 1cbc 2902 f8ba
00000050: 99c4 86ba 350b e6bb a113 e7bb a81e dd3b
00000060: eb07 d23b 8087 f33b 39b8 883a f637 8c3a
00000070: 8733 333c b0fc fe39 de82 8dbb ba95 723b
00000080: b6fb a93b b0f9 163c 7b91 fe3b 9bc7 0d3c
00000090: 32cb 793b afa0 e7bb dd6a f73a da9d e5bb
000000a0: f600 063c e853 e3bb 5433 5a3c 5052 233c
000000b0: fc60 ecbb a67a c1bb 0d33 2ebb e8a6 963a
000000c0: 2ff2 be3a ee3a 0abc ce77 043c a5ee a9bb
000000d0: d0c8 febb 50cf 8b3b 2386 69bb 8e4e d23b
000000e0: 56b6 b1b9 8066 ce3b 3d9b b73b 5a11 a13b
000000f0: 5c90 e43b 755d c03b cc40 b1bb 083e 41bc
00000100: 7567 033b fdb6 c6bb 57d8 f43a e952 013c
00000110: 82f4 76bb 1cde cfbb 5fed 0a3c 3cfe 923b
00000120: 90f5 00bc f3e8 d33b 0002 d53b 982a d33b
00000130: 90f0 bfba 404f 423a b3ea 943b 173d 053b
00000140: 3ae9 643c 8848 003c 846e f4bb 2bfa 013c
00000150: 0411 9fbb 08f0 e5bb 4fbd 48bb 32b1 a33b
00000160: bd35 dc3b 465c 753b f2b2 5cbb 3bce b7ba
00000170: 493d e73b b552 b0ba 5e42 d5bb c01e a7ba
00000180: ddf3 4b3b 5c40 013c a5b9 af3b 1ea8 6a3b
00000190: e7de 473a 9cb4 fabb a9f2 92bb a612 33bc
000001a0: 17ad 023c 7d21 b9bb a5f5 3a3c 544b 343c
000001b0: 3905 12bc 9449 7dbb dd24 33bb b6d1 db3a
000001c0: 893a feba 271e 1cbc 279d 4b3b 5338 4dbb
000001d0: c545 3cbb f051 353a 719a 433a c73c c33b
000001e0: 4079 5c3b 82ad 793b adc2 a13b ec64 893b
000001f0: 65a0 183b c7db 763b 6e2c e3bb b20d 24bc
00000200: 463f de3a 5ae5 123b 898d 37bb 3a58 c0ba
00000210: 4e77 8b3b ce65 c23a daf7 983b 8935 abb9
00000220: adf1 82bb 899a f2ba 8a92 2b3b 4f79 8b3b
00000230: 9c78 443b 8545 5d3b 55c0 04bb d51c 48bb
00000240: 8254 8b3b 66a1 b13b d021 45bb 0bce 593b
00000250: f031 8aba 36ca aa3b 7f75 d23a 8239 3ebb
00000260: 4b4e 273b d4f0 c63a c7bf 073b d393 a33b
00000270: e796 a0bb 90cf 793b 1959 a23b 06be 7e3b
00000280: 6674 3f3b 0c6e cc3a 0615 663b 5165 af3a
00000290: 0e3c 703b 3938 a539 f23a e83a 6046 f936
000002a0: 317b be3b fdca a33b 4fe2 263b ebb6 593b
000002b0: a41f 24bb c2a2 6b3b deba 62bb fc9d e93b
000002c0: a1a4 4ebb 66e9 28bb 36f4 20bb c428 ebba
000002d0: 020b 9aba eb5d 1b3b c3ce 70ba b501 d13a
000002e0: 02e3 13b7 3422 94bb 6533 6ebb 2e05 8d3b
000002f0: da25 9c3b 2c67 7ebb 6825 55bb 025f a9bb
00000300: 0e1a 893b fd2b e139 0ed9 86bb 2d99 993b
00000310: 0301 e4bb 78af f5bb 370d 163c 1846 033c
00000320: 20b0 b5bb 1034 ad3b c113 0a3b f88c 1a3c
00000330: 7484 a23b 09f7 883a 6301 8d3b 8a62 24ba
00000340: ed02 4b3c 8dd4 1d3c 35ce 36bc ba3b 833a
00000350: b376 013b 7963 a4bb dc18 a9bb 5957 d43b
00000360: 7c34 dd3b 812b a33b dd22 adb9 7036 9a38
00000370: 61bc 303c 241c 41ba 7ece 54bb 265d 453b
00000380: 5b5a 9f3b e4d1 0e3c d274 9d3b 275b da3b
00000390: 5a16 b03a a8fd c8bb bf01 24bb 1bf1 e8bb
000003a0: d383 033c 8d32 d5bb d42e 4b3c 9a64 383c
000003b0: c813 0cbc 2666 a7bb 25df 9bbb ac0e 12bb
000003c0: 3216 5e3a 0b91 0abc 1635 2b3c 0d2a 99bb
000003d0: 9bab b9bb d60e 933b cc0b 81bb 906f c93b
000003e0: 991f 1b3b 0efa dc3b 1b63 d83b 3cde 953b
000003f0: 9571 a43b fe81 cd3b 9b45 f4bb 5eca 36bc
0.0050003533 -0.0045210733 -0.0032489945 0.0046792715 -0.005395739 -0.006540589 0.00845378 0.0058578653
-0.0035438412 0.0067814225 0.0040205936 0.009795783 0.0027305647 0.0031583244 0.0042304345 0.00061555207
0.012944057 0.007986499 -0.009541656 -0.0018921542 -0.0010281979 -0.007020379 -0.0070519005 0.0067480393
0.0064096353 0.0074319243 0.0010430879 0.001069783 0.010937578 0.00048634922 -0.004318579 0.0037015514
0.005187477 0.009214804 0.0077688075 0.008653547 0.0038115499 -0.0070687155 0.0018876452 -0.0070073428
0.00817894 -0.0069374926 0.013317902 0.009968355 -0.00721371 -0.0059045134 -0.0026580722 0.0011493834
0.0014568026 -0.0084369015 0.008085204 -0.0051859193 -0.0077754036 0.004266657 -0.003563293 0.006418056
-0.00033895922 0.00629884 0.0056032226 0.0049153985 0.006975217 0.005870516 -0.0054093357 -0.011794575
0.002005068 -0.0060642944 0.0018680197 0.0078933025 -0.003768236 -0.006343616 0.008479445 0.0044858735
-0.007871047 0.0064669787 0.0065004826 0.0064442866 -0.0014643837 0.0007412322 0.00454458 0.0020330602
0.013971621 0.007829793 -0.0074594636 0.00793318 -0.0048543233 -0.0070171393 -0.0030630415 0.0049954886
0.0067202733 0.0037439032 -0.0033675996 -0.0014023253 0.0070568663 -0.0013452383 -0.0065081557 -0.0012750253
0.0031120696 0.00788888 0.0053627067 0.0035805772 0.00076244626 -0.007650925 -0.0044844938 -0.010929739
0.007975838 -0.005649744 0.011411105 0.011004288 -0.008912378 -0.0038648592 -0.0027335205 0.0016770873
-0.0019396107 -0.009528673 0.0031069012 -0.003131409 -0.002872811 0.00069168117 0.0007461673 0.005958173
0.0033641607 0.0038097803 0.0049365372 0.004192939 0.0023288962 0.0037667619 -0.0069327867 -0.010013031
0.0016956113 0.0022414536 -0.0028007946 -0.0014674731 0.0042561656 0.0014831366 0.004668218 -0.00032655548
-0.003996095 -0.001850919 0.0026179873 0.0042564045 0.0029979115 0.003376336 -0.002025624 -0.0030534763
0.0042520175 0.0054208515 -0.0030079968 0.0033234383 -0.0010543447 0.0052120937 0.0016056745 -0.0029025977
0.0025528844 0.0015177974 0.0020713673 0.0049919873 -0.0049008015 0.0038118102 0.004954469 0.0038870587
0.0029213666 0.0015596761 0.0035107746 0.0013381635 0.003665689 0.00031513142 0.0017717762 7.428971e-06
0.0058130254 0.0049985633 0.002546448 0.00332206 -0.0025043273 0.0035955166 -0.0034596245 0.007129429
-0.0031531232 -0.0025773882 -0.0024559624 -0.0017941226 -0.0011752548 0.0023707103 -0.00091860833 0.0015945943
-8.814737e-06 -0.004520679 -0.0036346551 0.004303596 0.0047652544 -0.003881882 -0.0032523517 -0.0051687965
0.004184014 0.00042948118 -0.0041152304 0.0046874494 -0.0069581284 -0.007497724 0.009158424 0.008012317
-0.0055446774 0.0052857473 0.0021068903 0.009433024 0.0049596373 0.0010449599 0.004303144 -0.0006270787
0.012390834 0.009633196 -0.011157562 0.0010012307 0.0019754588 -0.005016741 -0.005160434 0.006480139
0.0067506414 0.0049795513 -0.00033023107 7.353432e-05 0.0107871005 -0.0007366559 -0.0032471712 0.0030115335
0.004863066 0.008717034 0.004805186 0.0066636982 0.0013434396 -0.006133754 -0.0025025455 -0.00710882
0.008027035 -0.0065062703 0.012401301 0.011254454 -0.008549638 -0.0051086126 -0.0047568255 -0.0022286577
0.0008471935 -0.0084574325 0.010449668 -0.0046742023 -0.005666209 0.0044878526 -0.003938174 0.0061473325
0.0023669957 0.006743676 0.006603611 0.0045736115 0.005018423 0.0062716 -0.0074545867 -0.011156647

fc.weight f4 [1, 64]
00000000: 21f6 7dbe f1f5 7e3d 3537 5c3e 7d63 493e
00000010: ad01 1fbe 07a1 8dbe 3919 10be 1138 993e
00000020: ff68 8b3e 16c3 523e 2ff0 97be 7bcd 21be
00000030: a30c 24bd a207 8cbe b93f 063e c460 1e3c
00000040: 0730 17be 229d 74bd 2695 313e 540f 03be
00000050: 2a1a a83d d44d 6cbe 7ec9 f13d 650a 143d
00000060: 036e 29be a90f 93be d600 c2bd 61e2 2fbe
00000070: 42e1 40bb 32df 3dbe 985e 53be f9f1 99be
00000080: 5d27 07be a11c 39be cead 543d 26a6 89be
00000090: 1f16 21be fc46 e93d e194 67be 34d6 d8bd
000000a0: 2923 12be 852b 0dbd a6ee 44be 6ac0 f3bd
000000b0: 2563 8e3e a91a 5cbe c437 973e edf6 1f3c
000000c0: a499 973d 4ef2 793e 88c6 c23d 5b99 5e3e
000000d0: e281 773e 1339 8fbd 88e6 483e c7d1 07be
000000e0: d64d 1b3e 0c77 883d b297 d33d aca6 9cbe
000000f0: 0c8a edbd 13b2 823e 81ac b33c f7ad 5a3d
-0.24800922 0.062246267 0.21505435 0.19666858 -0.15527983 -0.27661917 -0.14072122 0.29925588
0.27228543 0.20582232 -0.29675433 -0.15801041 -0.040051114 -0.27349573 0.13110246 0.009666625
-0.14764415 -0.059720166 0.17342052 -0.12798816 0.082081154 -0.23076564 0.1180601 0.036142725
-0.16545872 -0.28722885 -0.09472816 -0.171762 -0.002943114 -0.18542174 -0.20641553 -0.30067423
-0.1319861 -0.18077327 0.051923566 -0.26884574 -0.15731095 0.11390492 -0.22615387 -0.10587731
-0.14271225 -0.03446533 -0.19231662 -0.119019344 0.27810016 -0.21494545 0.29534733 0.009763462
0.074023515 0.24408838 0.09510523 0.21738188 0.2417064 -0.06993308 0.1961919 -0.13263617
0.15166411 0.066633314 0.10331668 -0.3059591 -0.11598596 0.25526485 0.021932842 0.053388562

exp_avg f4 [256, 40]
00000000: 084c 9539 1486 8e39 0a03 d739 b673 ee39
00000010: 1de6 9b3a 08de 40ba a453 8eb9 8472 f838
00000020: 3749 e039 3938 ea39 eea0 3d39 ac36 eb37
00000030: 4c9b 92b9 26c5 5439 b834 4cb9 ad6a 4739
00000040: 9060 02b9 5af9 153a aa17 85b8 5e29 cfb9
00000050: a931 e1b9 09d0 efb9 6a80 15ba 1ad7 9b3a
00000060: 3469 deba 3e2c 88ba e3bc 2a3a 2677 eb39
00000070: cde2 8a38 2e25 13b9 b691 b8ba 026b 8aba
00000080: 16a1 383a 4631 69b9 771a ebb8 e66b 3aba
00000090: 0dbc 29ba 7845 9fba 4180 14ba 8e1a 9ab9
000000a0: b6ab 9737 aede 2537 3ec7 d737 959d 9137
000000b0: 97ca 3938 adae 90b8 1de5 cbb8 55e7 c4b8
000000c0: 12e5 ffb7 3439 8138 2e70 e735 a92b 80b8
000000d0: 9060 5eb8 d542 6ab8 c341 68b8 ee8b 1ab7
000000e0: 53bb 87b8 3230 1338 a154 39b8 e889 2a38
000000f0: 814d fe37 2f13 8337 fe98 5138 2f02 3d38
00000100: d043 b1b8 7db3 dcb8 a374 7bb7 6ab7 c638
00000110: 0113 8a38 71af ce38 1072 d1b8 2820 e8b8
00000120: ec7b 8f38 5a29 8fb8 009f c034 7ce5 0938
00000130: 5879 5338 e8d3 e6b7 b1c0 ddb8 58c0 b1b8
00000140: 867c 0e3a 2172 0b3a 4e87 043a cc31 083a
00000150: b3a9 2a39 624d a7b9 6aaf 92b9 0a3b 1fb9
00000160: 5f1f fcb8 fb3d dc37 a88d 0b37 2b69 89b9
00000170: 6eb8 96b9 9c0a 8db9 f751 a6b9 745f 7ab9
00000180: 6168 7338 38d4 05ba 3aa3 bab8 f74e 59ba
00000190: 8fa6 51ba 21eb 0cba 8690 73ba 0209 2939
000001a0: 06ff 4bb9 8af0 22b9 d7f7 a939 2e1d 8d38
000001b0: c9bd ecb8 8084 de34 74ca 6db9 c830 24b9
000001c0: 6667 e1b9 f42a 98b9 5358 0bba e08d 6b38
000001d0: 6d20 f039 91c6 2ab9 8c5f 5039 66fd 06b9
000001e0: 6ccf 1937 60da e837 9489 e837 24e5 8c38
000001f0: f02d d939 1e44 f0b7 f85f 0db9 671c d638
00000200: 6574 0c39 691c 1639 9b74 3539 46c0 2937
00000210: 452b 1bb9 d3f2 4139 9490 8cb8 ec7b 0f39
00000220: f20b 8db7 be41 033a 7234 a038 5d50 41b9
00000230: 2822 c5b9 869a 9eb8 2b1c e8b9 38dd d839
00000240: 48df 18ba a1ca d1b7 e7e3 4b39 1090 e7b9
00000250: cc58 59b9 823e f938 5730 48b8 0a52 92b8
00000260: 95f3 1439 583b a736 69d8 1fb8 32bc a838
00000270: 8d61 b138 d818 69b8 b449 c638 4cde bab9
00000280: 13e8 1139 b3e8 0c39 485a f538 d253 de38
00000290: a243 9db8 c13c c1b7 cfd1 f2b8 0220 1eb9
000002a0: d65c 0fb8 4231 edb8 746f 9138 0a9c b4b8
000002b0: 3134 1e38 6f61 1cb9 eef2 b2b7 ee18 d1b8
000002c0: 50ed 05b6 379d 7bb9 0a07 71b8 523b d138
000002d0: 8c0b 4539 ac34 4d38 4232 3739 acd0 a1b8
000002e0: fbee b8b8 48c0 e837 5603 c1b7 5a1f bb39
000002f0: 9218 f0b6 82ec 3339 90e7 b1b8 522b 1a38
00000300: e02e 5135 1d39 b8b8 8833 e937 dcb9 163a
00000310: 24b2 143a bbc8 a238 d49a c5b8 b249 9cb8
00000320: 689c 9ab8 2e9d 63b8 bf88 0db9 0e2a 26b9
00000330: 2409 99b9 e32a 033a 66c7 6438 7461 55b9
00000340: bc4b 4bb9 e612 a1b8 8d10 34b9 b8e9 4738
00000350: b268 c139 0014 31b3 130a 9739 b055 4c36
00000360: f0ee be39 9ade d1b9 00fa ab39 9bd0 20b8
00000370: 9e67 b6b7 449b 2d38 a1ed ec38 a0d3 97b9
00000380: 4aac a239 0b76 0e3a 4814 96ba a12f dc37
00000390: e214 0d39 b4bf 1239 4cab 8e39 9dc4 0d3a
000003a0: b0d8 f936 2682 2739 0e31 6638 bb84 223a
000003b0: 0811 733a 6cec 403a ea15 1b3a 4a62 ca39
000003c0: d658 e739 7cc3 e439 88fb e339 f014 df39
000003d0: de0c 1a38 9b81 dab8 8553 abb9 1382 0cb9
000003e0: 43ea 1eb9 02f2 f2b8 cdf1 1cb9 2cfa 3cb9
000003f0: cf11 2bb9 9061 3fb9 8d26 43b9 cb80 63b9
0.00028476142 0.00027184247 0.0004101026 0.0004548111 0.0011894141 -0.0007357304 -0.00027146668 0.00011846892
0.0004277916 0.00044673847 0.00018084396 2.8039642e-05 -0.00027962995 0.00020291339 -0.00019474595 0.00019017859
-0.00012433738 0.0005721055 -6.346342e-05 -0.00039512938 -0.00042952344 -0.0004574063 -0.0005703034 0.0011889667
-0.0016968609 -0.0010389162 0.00065131317 0.00044911465 6.622598e-05 -0.00014032863 -0.0014081511 -0.0010560455
0.00070430466 -0.00022238967 -0.00011210603 -0.0007111415 -0.000647486 -0.0012151441 -0.0005664863 -0.00029392954
1.8080562e-05 9.886613e-06 2.5722777e-05 1.7358727e-05 4.4296114e-05 -6.898991e-05 -9.72247e-05 -9.389097e-05
-3.0505038e-05 6.161854e-05 1.724349e-06 -6.111648e-05 -5.3018855e-05 -5.585219e-05 -5.5374356e-05 -9.211695e-06
-6.4721935e-05 3.5092417e-05 -4.4186254e-05 4.0659594e-05 3.031525e-05 1.562535e-05 4.9971968e-05 4.5063145e-05
-8.452649e-05 -0.0001052385 -1.4987922e-05 9.475539e-05 6.5838925e-05 9.855524e-05 -9.9871424e-05 -0.00011068612
6.8418536e-05 -6.826474e-05 3.5878475e-07 3.287707e-05 5.041933e-05 -2.7516813e-05 -0.00010573993 -8.4758445e-05
0.00054354256 0.0005319436 0.00050555624 0.00051954086 0.00016275681 -0.00031910377 -0.00027977984 -0.00015185415
-0.0001202214 2.6254906e-05 8.3180275e-06 -0.00026209033 -0.0002874764 -0.0002690152 -0.00031723056 -0.00023877417
5.8032925e-05 -0.00051051704 -8.8995745e-05 -0.000828966 -0.00079975364 -0.0005375613 -0.000929125 0.00016120452
-0.00019454592 -0.00015539132 0.00032418847 6.728839e-05 -0.00011288707 4.144713e-07 -0.00022677501 -0.00015658431
-0.00042992382 -0.00029023702 -0.00053155905 5.6160497e-05 0.00045800526 -0.00016286435 0.0001987202 -0.00012873634
9.167805e-06 2.7758244e-05 2.772062e-05 6.718401e-05 0.0004142369 -2.8641949e-05 -0.00013482559 0.000102096055
0.00013394801 0.00014315698 0.00017304944 1.0117952e-05 -0.00014798071 0.00018496373 -6.70265e-05 0.00013683707
-1.6814072e-05 0.000500705 7.639163e-05 -0.00018435852 -0.00037600216 -7.562809e-05 -0.00044271475 0.0004136355
-0.00058316113 -2.5009098e-05 0.00019444489 -0.00044167088 -0.00020727812 0.00011884888 -4.7728736e-05 -6.9771035e-05
0.00014205121 4.9838964e-06 -3.81101e-05 8.0459184e-05 8.458188e-05 -5.5574666e-05 9.455104e-05 -0.0003564231
0.00013914732 0.00013438128 0.000116993266 0.00010601398 -7.498941e-05 -2.3035684e-05 -0.00011578539 -0.00015079978
-3.4180317e-05 -0.000113102156 6.9348986e-05 -8.6121334e-05 3.7718743e-05 -0.00014913616 -2.1332376e-05 -9.97054e-05
-1.9956678e-06 -0.00023995792 -5.7465433e-05 9.976946e-05 0.00018791686 4.8924863e-05 0.00017470962 -7.7159464e-05
-8.818317e-05 2.7746093e-05 -2.3008946e-05 0.00035690778 -7.1554177e-06 0.00017158876 -8.4831496e-05 3.6756806e-05
7.792678e-07 -8.784442e-05 2.779976e-05 0.0005749741 0.0005672297 7.762151e-05 -9.422531e-05 -7.4523865e-05
-7.372425e-05 -5.4267402e-05 -0.0001349775 -0.0001584666 -0.00029189244 0.0005003644 5.454514e-05 -0.00020349567
-0.00019387802 -7.680598e-05 -0.00017172303 4.7662965e-05 0.00036889833 -4.1229214e-08 0.0002880847 3.0448246e-06
0.00036417646 -0.00040029438 0.00032801926 -3.834125e-05 -2.1744341e-05 4.1391017e-05 0.00011297619 -0.00028958637
0.00031027413 0.000543446 -0.0011450136 2.6248223e-05 0.00013454587 0.0001399506 0.00027211977 0.0005408021
7.446004e-06 0.00015974845 5.488196e-05 0.0006199588 0.0009272252 0.00073594484 0.0005916046 0.00038601673
0.0004412594 0.00043633196 0.0004348422 0.00042549474 3.6728445e-05 -0.00010419191 -0.00032677889 -0.00013399897
-0.00015155323 -0.00011584537 -0.00014967397 -0.00018022273 -0.00016314465 -0.00018251524 -0.0001861101 -0.00021696386

exp_avg_sq f4 [256, 40]
00000000: 8d07 4536 8d6d 3836 e06d 7e36 3508 7336
00000010: a057 4136 3e83 b636 6806 0737 be76 8336
00000020: f313 e635 6adc d035 b485 7735 fa7a 9236
00000030: 0253 b136 d293 8c36 28b4 a736 2f53 1e36
00000040: fd97 4936 2cfe 4c36 88b9 4d36 3772 c135
00000050: a537 d635 ed31 7035 58e7 0936 0c53 4136
00000060: 69a5 f336 9454 1537 d3bc 6135 e2b3 5736
00000070: 6953 5936 a5fa f734 db5d 1037 bda3 1537
00000080: 2da8 9a35 136f b736 4205 2236 e26b 4f35
00000090: 3097 8735 68ea 0936 f6f5 9636 25ca a636
000000a0: 77f9 0433 795f f832 c391 0533 35de ff32
000000b0: eefb 1733 fd1f 0a33 3dc7 2233 910c 3233
000000c0: 1bac 1033 5afa 2f32 7fd3 df33 9b59 2f33
000000d0: efac b932 3d4c 8b33 8169 d732 21c8 0333
000000e0: 78ee b932 9a74 5433 f59c f232 5386 8a33
000000f0: c391 8833 03a8 7933 dc1e 9733 7720 1833
00000100: 7624 e832 4912 0633 536f 0433 85bc fb32
00000110: f92a c932 1572 9c33 96e6 2c33 75f9 0533
00000120: f309 0b33 52ab 2c33 ea33 4c33 5307 ba32
00000130: c43e 9432 64ca 5d32 191d 0b33 e5ac 8e33
00000140: 7d6c f134 f46c f434 c872 f934 0004 0735
00000150: aeee cc34 1a17 e634 3cd5 0635 47f9 a034
00000160: 1ef2 8e34 f156 5134 e446 4e35 5591 cd34
00000170: bacf 4834 5fbf 9935 f1e9 4f34 c348 b134
00000180: 6f64 2a34 f01d 7135 ac02 5134 e4d0 c135
00000190: 140b c435 0957 cc35 e0d5 df35 46f6 cc34
000001a0: 9d23 2234 6359 2a35 78f0 0735 f605 9335
000001b0: 00e1 b234 2460 8f34 1fd6 e234 a7be 2a35
000001c0: 47a6 1635 48b2 e034 f40d 2f35 a3aa 9635
000001d0: 53c0 d235 cf7e a834 38e1 7b35 e91e 1336
000001e0: 3ff9 5a35 5635 4c35 71fe 5d35 5b1a 4d35
000001f0: bd17 0435 f597 8635 147b 1f35 fa3a 6135
00000200: 9d5a 0a35 6f90 df34 afdc ec34 0600 5c35
00000210: 9f6e fd34 01c6 c935 03ca 1335 a9b2 6535
00000220: df96 0c35 c723 1e36 c012 1d35 6e56 8e35
00000230: 9e83 8535 01cc 9c35 57c2 9735 de10 0435
00000240: cdc4 8f35 399b 9435 8973 8334 c7fc dd34
00000250: b767 f934 4e01 a134 03d3 8e35 c8a1 9235
00000260: d4ef 1d35 701f 8035 f691 6635 64fa c934
00000270: 63e0 e434 3a07 c534 5653 8435 7144 bf35
00000280: 7128 9f34 fe6f 9b34 a2e3 9b34 d06c 9c34
00000290: 4dde 5734 3ccf 5734 bd42 ae34 9702 9634
000002a0: 70a1 8b34 8b63 5834 41ad 8634 c967 ae34
000002b0: 7274 0334 0761 3935 cc28 4734 d9ae b534
000002c0: 6cb0 0b34 c2e8 3e35 6b84 4234 0137 a434
000002d0: f393 4d34 65ef c234 1927 6034 c333 5834
000002e0: e9a4 d533 4961 7c34 e7bd d833 c607 2134
000002f0: 8c2e 9334 41d6 5134 eeba 8034 5e61 7634
00000300: 5452 2335 8062 ad34 24b5 ae34 af04 6f35
00000310: 3ff2 7f35 4516 c333 4dcc 3134 59fb 8335
00000320: fca8 7235 965a 7a35 7d92 9735 c011 9835
00000330: edbc bf35 bbd5 1136 1b57 8035 4da8 7935
00000340: 1209 1a35 bc58 0635 f46a 7d35 b22c 9335
00000350: 1c38 4635 76bf 2636 6ec2 5635 1197 4935
00000360: 81fe b834 7077 0f36 755a fc34 9249 0a35
00000370: 7c92 a834 8f8f 4835 e421 e634 37a6 bf35
00000380: a259 be35 3739 0636 9521 4436 e3f0 0c35
00000390: 9310 df35 4afb 5635 c652 bf35 13c4 0536
000003a0: 4ef0 6435 28de b035 15ea 3535 27ba 1436
000003b0: c91e 4036 86e1 e835 bfd8 1936 140d ab36
000003c0: a794 8a35 1558 8c35 f4ce 9b35 c526 a135
000003d0: 9063 af35 5933 aa35 e1f5 3635 eafb 1a35
000003e0: 32df 0335 d461 ea34 cdeb 5835 c8e7 5d35
000003f0: 165b e034 58cc e435 3e34 1935 ba95 5b35
2.9359683e-06 2.7481904e-06 3.7912905e-06 3.6214599e-06 2.8810246e-06 5.4393013e-06 8.048119e-06 3.9179276e-06
1.7142141e-06 1.5561357e-06 9.2209234e-07 4.3654554e-06 5.2846744e-06 4.1895337e-06 4.997961e-06 2.3592254e-06
3.0039803e-06 3.0546316e-06 3.0655374e-06 1.4412861e-06 1.5960437e-06 8.947962e-07 2.054925e-06 2.880758e-06
7.2612206e-06 8.900784e-06 8.4093807e-07 3.2142202e-06 3.238407e-06 4.6189703e-07 8.604921e-06 8.919215e-06
1.152284e-06 5.4667557e-06 2.4142942e-06 7.72705e-07 1.0102285e-06 2.0551033e-06 4.498982e-06 4.9707182e-06
3.0960532e-08 2.8914416e-08 3.1099045e-08 2.9786955e-08 3.5386556e-08 3.2159722e-08 3.789977e-08 4.1455284e-08
3.368414e-08 1.0243264e-08 1.04227176e-07 4.082686e-08 2.1615476e-08 6.4865596e-08 2.5077272e-08 3.068283e-08
2.1645278e-08 4.9466145e-08 2.8243884e-08 6.450559e-08 6.3595074e-08 5.8127636e-08 7.037099e-08 3.5419784e-08
2.7024935e-08 3.1215937e-08 3.0834894e-08 2.9305975e-08 2.3419021e-08 7.2850675e-08 4.0256587e-08 3.1193355e-08
3.237251e-08 4.0202686e-08 4.7544667e-08 2.165658e-08 1.725801e-08 1.2909911e-08 3.2389924e-08 6.6438396e-08
4.4968684e-07 4.5527815e-07 4.6463379e-07 5.029724e-07 3.8171623e-07 4.2857647e-07 5.0229187e-07 2.9983696e-07
2.6625725e-07 1.9496271e-07 7.684414e-07 3.8289969e-07 1.8702022e-07 1.1455085e-06 1.9363485e-07 3.302176e-07
1.5869021e-07 8.982306e-07 1.9465614e-07 1.4440416e-06 1.4606362e-06 1.5224515e-06 1.667704e-06 3.8177149e-07
1.5100382e-07 6.346001e-07 5.0641347e-07 1.0954088e-06 3.3318793e-07 2.6705777e-07 4.2251574e-07 6.360737e-07
5.612132e-07 4.1852968e-07 6.5212885e-07 1.1225533e-06 1.5702193e-06 3.1384704e-07 9.3832523e-07 2.19227e-06
8.157403e-07 7.6073536e-07 8.2699177e-07 7.6406803e-07 4.9208376e-07 1.0028003e-06 5.941122e-07 8.3904854e-07
5.1540866e-07 4.1642076e-07 4.4118994e-07 8.195642e-07 4.720541e-07 1.5033294e-06 5.5055733e-07 8.556913e-07
5.237361e-07 2.356466e-06 5.851434e-07 1.0604979e-06 9.947578e-07 1.1682279e-06 1.1306937e-06 4.9198377e-07
1.0711607e-06 1.1072035e-06 2.4484714e-07 4.1348378e-07 4.6455327e-07 2.9989536e-07 1.0641237e-06 1.0924932e-06
5.8836054e-07 9.545893e-07 8.589408e-07 3.762135e-07 4.2631572e-07 3.6699367e-07 9.85902e-07 1.4250528e-06
2.9645483e-07 2.8952485e-07 2.9036624e-07 2.9136436e-07 2.0104308e-07 2.0098827e-07 3.2458584e-07 2.7941562e-07
2.600823e-07 2.0152781e-07 2.5085504e-07 3.248554e-07 1.2242688e-07 6.9059064e-07 1.8548161e-07 3.3841096e-07
1.3009566e-07 7.1119223e-07 1.8115831e-07 3.05874e-07 1.9145936e-07 3.6309498e-07 2.087585e-07 2.0135398e-07
9.9485824e-08 2.3504721e-07 1.0092827e-07 1.4997121e-07 2.741475e-07 1.9542587e-07 2.3977867e-07 2.2945957e-07
6.0842035e-07 3.229543e-07 3.2541823e-07 8.9041254e-07 9.5347417e-07 9.084446e-08 1.6558734e-07 9.833412e-07
9.039793e-07 9.326408e-07 1.129301e-06 1.1330048e-06 1.4285594e-06 2.1731091e-06 9.562094e-07 9.300464e-07
5.738267e-07 5.0048016e-07 9.440548e-07 1.0965362e-06 7.38424e-07 2.4847373e-06 8.0004145e-07 7.5098166e-07
3.4457847e-07 2.1378182e-06 4.7004474e-07 5.1516065e-07 3.139902e-07 7.471471e-07 4.2865497e-07 1.4278984e-06
1.418219e-06 2.000086e-06 2.9225823e-06 5.25046e-07 1.6619618e-06 8.0086886e-07 1.4254699e-06 1.9932675e-06
8.528631e-07 1.3177678e-06 6.776839e-07 2.2162073e-06 2.8628149e-06 1.7350983e-06 2.292494e-06 5.0977196e-06
1.0325065e-06 1.0456448e-06 1.1608631e-06 1.2006718e-06 1.3067493e-06 1.2680931e-06 6.8158084e-07 5.7736054e-07
4.9126095e-07 4.3657076e-07 8.0809406e-07 8.26662e-07 4.1789525e-07 1.7046796e-06 5.7072964e-07 8.180174e-07

exp_avg f4 [256, 64]
00000000: fecf 3cb8 1bd7 bf38 e8df 66b8 1073 0d36
00000010: 20d4 54b7 a865 2a37 dc1c 1838 f024 7438
00000020: f955 5638 9b1c cfb8 69ad 1339 c048 bfb7
00000030: cc6d d337 fa54 25b8 311c b0b7 d270 2638
00000040: d8b0 1b39 ea1f 9cb7 2c3c be36 9d04 6237
00000050: cd2c 1d37 83d5 3bb8 fd3e f8b6 a6a4 21b8
00000060: 5abf 2639 a527 4db8 1021 5b36 f5b9 1c38
00000070: 8d47 9fb7 a6b9 9137 6052 9b38 8cfb e936
00000080: a1bc 29b8 f573 e936 18b8 06b8 a8db 87b8
00000090: e0c7 7a38 deba a238 5245 2338 0999 94b8
000000a0: bb49 0638 5058 b3b7 6b5f 0b39 d5f3 b038
000000b0: 5e8e 1eb8 db22 b938 e5b7 6e37 8ac0 b0b7
000000c0: f393 a3b8 dd23 b637 9964 93b7 0668 adb7
000000d0: d230 1c38 505e 6eb8 ee6a 9ab8 d068 6637
000000e0: 06f3 18b9 0025 0437 add2 65b8 1a64 ffb7
000000f0: ea51 c4b8 098a 45b8 e23f 1738 a043 c5b7
00000100: 34d5 27b6 db87 1635 5c0c 12b5 c868 0737
00000110: 0ce9 af37 54de bfb6 5819 9ab7 c71d 5cb7
00000120: 9611 2236 2a8d a4b6 14f7 4ab5 f10e c536
00000130: 6ce9 e6b6 085a 7a37 6f63 bd36 a6f0 0c38
00000140: 3d24 8fb7 b0b8 0937 ce60 ef36 ef5b 8bb6
00000150: 32af 3b37 c245 b5b5 bc4c 4336 79fe b837
00000160: 0ade 69b6 6529 5237 a632 2eb6 b459 8436
00000170: 2988 1bb7 cb4e 9837 a175 e8b6 9a5f b935
00000180: a86f aab5 5c87 8b37 afea 8f37 419e bf36
00000190: 4797 7537 ae27 ad36 70b3 c937 c8ec 19b6
000001a0: b893 9336 71db 2a37 76c6 1a35 2bb0 8236
000001b0: 1168 65b6 5aef 2937 f168 a8b7 bc22 a536
000001c0: d6dd 8e37 2c66 9f35 1580 f0b6 d188 19b8
000001d0: 4761 e0b6 b9b6 d136 6272 d4b4 00e9 e1b3
000001e0: 44a3 21b6 bf50 b0b7 6a13 0b37 32bc 7636
000001f0: 7044 2fb4 6410 b135 8f32 5eb6 92da 8336
00000200: 41ae a837 5087 39b8 3c2c 67b8 f743 03b9
00000210: b34d 4fb8 88fd d0b5 d099 5a39 0017 77b4
00000220: d385 00b8 138c f8b8 c9e1 ec38 4d7e 50b6
00000230: 18ed b838 36d8 18b7 5f8b cbb8 a3a9 27b9
00000240: 36a1 5239 a789 8c38 df9f 7137 8fff 5c38
00000250: 32cd 2d38 44ef a737 cae2 7a37 d5a8 0ab9
00000260: 351f 3c39 7e81 81b7 80f7 18b8 d378 9f37
00000270: 7dd4 92b8 52ca 36b8 cf68 7438 b773 3737
00000280: d59d ad38 c997 8038 7daf 26b9 5af7 5237
00000290: c1c8 1eb8 7dd3 8538 b653 c5b8 dc4a e4b7
000002a0: 15d6 8038 20a1 ff36 2afd 7f38 0b6e 3838
000002b0: 59cc 9b38 51a8 a2b7 be69 5f38 a59a 0ab9
000002c0: 36ba 2fb9 8b06 0f39 1c9b d2b7 8323 3439
000002d0: 38fb 0b37 ee9f 2738 8f0d 97b8 f858 ec38
000002e0: 7e78 c4b8 7c43 f837 c1a4 1bb9 750b a038
000002f0: 3064 9eb7 c49d 8736 d94c 7e38 b071 5ab5
00000300: abb0 12b7 453e 8338 6e81 28b8 7af9 1438
00000310: 63c7 20b7 10be 9c37 ee2a 1138 82ae 2c38
00000320: 801d 6238 5252 17b8 bc25 7338 39dc cdb7
00000330: aca8 a8b7 5421 6637 a959 fdb7 4e4a a8b6
00000340: 868d b638 0aa0 1eb8 db2e 5337 527d 9d37
00000350: a026 0237 f613 6337 1c6a 0238 e00c 81b8
00000360: c24b c637 5333 74b8 b1f9 51b7 adab f737
00000370: e84b 69b8 f03b 0f38 8d1e 6838 abf8 e7b7
00000380: 063b 2cb8 5d3f 4038 eccb 0b37 c9a9 92b7
00000390: 68e5 4038 ab68 5138 81b2 37b8 8ccb 5ab8
000003a0: 326f 9337 bcb0 85b6 1dac 6038 ca90 da37
000003b0: e078 7037 413b 3338 9c8e ac36 71ad 3cb7
000003c0: 7fc9 42b7 d251 9b38 5f0d b336 2418 2137
000003d0: ee90 12b7 f7ee 17b8 ba6b b4b7 4cb4 2f38
000003e0: 1229 2ab8 6289 9337 65aa b9b8 ac74 b0b7
000003f0: fab0 6eb8 5e21 fcb7 84ec 1c37 7e68 ca36
-4.50164e-05 9.147656e-05 -5.5044802e-05 2.1077612e-06 -1.2685574e-05 1.0156458e-05 3.62665e-05 5.8208534e-05
5.1101644e-05 -9.875857e-05 0.00014083613 -2.2802851e-05 2.5204288e-05 -3.9418206e-05 -2.0993963e-05 3.9682556e-05
0.00014847831 -1.861151e-05 5.669446e-06 1.3471724e-05 9.36836e-06 -4.4783123e-05 -7.3983088e-06 -3.8538732e-05
0.00015902278 -4.891273e-05 3.2652788e-06 3.7366484e-05 -1.8987595e-05 1.7371796e-05 7.4063195e-05 6.973225e-06
-4.0468414e-05 6.9574403e-06 -3.211954e-05 -6.478216e-05 5.9790793e-05 7.759569e-05 3.8926788e-05 -7.085695e-05
3.2016756e-05 -2.1379587e-05 0.00013291619 8.437751e-05 -3.7802725e-05 8.82798e-05 1.4228722e-05 -2.1070493e-05
-7.8000034e-05 2.171279e-05 -1.757061e-05 -2.0671647e-05 3.7238766e-05 -5.6831457e-05 -7.3632094e-05 1.3733472e-05
-0.00014586383 7.876428e-06 -5.479406e-05 -3.0444982e-05 -9.361266e-05 -4.7097015e-05 3.60607e-05 -2.351572e-05
-2.500904e-06 5.607705e-07 -5.4407224e-07 8.071023e-06 2.0970147e-05 -5.718126e-06 -1.8370032e-05 -1.3119955e-05
2.4150117e-06 -4.9040145e-06 -7.561041e-07 5.872797e-06 -6.881708e-06 1.4922123e-05 5.6442145e-06 3.3602722e-05
-1.7063803e-05 8.208837e-06 7.1340246e-06 -4.1532253e-06 1.1186859e-05 -1.3505853e-06 2.910193e-06 2.2053007e-05
-3.484895e-06 1.2526613e-05 -2.5957502e-06 3.9443494e-06 -9.270422e-06 1.8156503e-05 -6.9278326e-06 1.3811398e-06
-1.2698483e-06 1.6633123e-05 1.7156211e-05 5.7106668e-06 1.463836e-05 5.160421e-06 2.4044624e-05 -2.2936601e-06
4.398138e-06 1.0183882e-05 5.765827e-07 3.8948106e-06 -3.4184234e-06 1.0128913e-05 -2.0076028e-05 4.921427e-06
1.703102e-05 1.1876159e-06 -7.167468e-06 -3.6605463e-05 -6.687045e-06 6.249957e-06 -3.9571302e-07 -1.05197614e-07
-2.4085903e-06 -2.1018435e-05 8.289566e-06 3.67664e-06 -1.6323042e-07 1.3192298e-06 -3.3110007e-06 3.929549e-06
2.0108304e-05 -4.4233457e-05 -5.511589e-05 -0.00012518452 -4.942501e-05 -1.5570995e-06 0.000208474 -2.3012035e-07
-3.064221e-05 -0.000118516524 0.00011295413 -3.1067932e-06 8.817966e-05 -9.1102465e-06 -9.705754e-05 -0.00015989556
0.00020087216 6.70136e-05 1.4401942e-05 5.2690095e-05 4.1437517e-05 2.0019368e-05 1.4953965e-05 -0.000132236
0.00017940703 -1.5438298e-05 -3.6470126e-05 1.901054e-05 -7.0014015e-05 -4.3580607e-05 5.8271744e-05 1.0934592e-05
8.278681e-05 6.131788e-05 -0.00015896368 1.2574566e-05 -3.7857102e-05 6.381327e-05 -9.4092844e-05 -2.7214577e-05
6.1433915e-05 7.6183496e-06 6.1032515e-05 4.3971504e-05 7.429039e-05 -1.9390283e-05 5.3265823e-05 -0.00013218315
-0.0001675867 0.0001363998 -2.510618e-05 0.00017179367 8.343537e-06 3.996485e-05 -7.2027666e-05 0.00011269929
-9.368452e-05 2.9595329e-05 -0.00014843328 7.6315286e-05 -1.8881721e-05 4.04168e-06 6.062989e-05 -8.1376766e-07
-8.743412e-06 6.2581654e-05 -4.0174862e-05 3.5518293e-05 -9.5831665e-06 1.8685154e-05 3.4610675e-05 4.117052e-05
5.3910073e-05 -3.6077872e-05 5.7970858e-05 -2.4540454e-05 -2.0105705e-05 1.3716828e-05 -3.0201702e-05 -5.0154404e-06
8.704797e-05 -3.7819183e-05 1.2587489e-05 1.8774215e-05 7.757597e-06 1.3534902e-05 3.1093237e-05 -6.1535975e-05
2.3638717e-05 -5.8221933e-05 -1.2515507e-05 2.9524637e-05 -5.5622222e-05 3.4149678e-05 5.5341563e-05 -2.7653141e-05
-4.1062965e-05 4.583538e-05 8.332525e-06 -1.7483619e-05 4.599002e-05 4.9926963e-05 -4.3796845e-05 -5.2164818e-05
1.7575545e-05 -3.9842835e-06 5.3566055e-05 2.6055048e-05 1.4333258e-05 4.273211e-05 5.1426014e-06 -1.1246056e-05
-1.1610216e-05 7.406216e-05 5.3361723e-06 9.6019685e-06 -8.736022e-06 -3.622376e-05 -2.1507836e-05 4.1891166e-05
-4.0569408e-05 1.758774e-05 -8.853226e-05 -2.1035165e-05 -5.6908444e-05 -3.0056279e-05 9.353393e-06 6.0322336e-06
